deep-learning-Pytorch/Cifar10_1/model/cnn_model.pth (torch, 251391 bytes, 10 tensors)

conv1.weight f4 [6, 3, 5, 5]
00000000: b66d 123f 4ce8 073f 4c53 463f 2ee0 1c3f
00000010: abc8 133f 1ed7 893e 5d78 5f3e 8d7e a73e
00000020: a17d aa3e c28d 8d3e 832b 0ebe bbd2 74be
00000030: 7f6f 133c 9c85 1abe f2b5 00be 95d8 c3bd
00000040: 89de d3bd 185b c0bb e185 2bbe e65b 4d3d
00000050: f45e 91be b176 f5be d19c 09bf e2c3 1ebf
00000060: 6b5a 0cbf fb14 373e 85f6 9abd 0404 673e
00000070: 661e 1ebe 51d3 5bbe ed86 873b b9d2 80be
00000080: ff3c a9be 76c7 d6be 5d94 e0be 4e1b 56be
00000090: 572c 07bf 408b d9be ad43 f2be 3c03 acbe
000000a0: 91c4 953c a5ee 933d ed64 583e cf51 103e
000000b0: 42d7 a03d 0255 203d 7b81 56bd a3f2 1b3e
000000c0: e320 8a3b d149 d3bc fd3d 0b3e e8b1 2cbd
000000d0: 2330 fb3c 62a7 ebbc ddc3 be3d 16f3 643c
000000e0: 340a 76be b48c 10be e445 99be ef21 03be
000000f0: e822 8dbc 033c 6bbe 77d6 cabd a1f9 15be
00000100: 5a43 cabd 08aa 883e 7548 353e e20e c13e
00000110: ed7a c83e 2f40 c03e 9f73 7d3e cc57 4c3e
00000120: 8631 f63e 7fb4 873e 2731 7a3e afa6 733d
00000130: 5c94 523d 0a6c b3bd e985 aabe 2721 96be
00000140: dde3 e1bd 0a56 c43e 21ea 203f 6d08 8e3e
00000150: ce2f 3dbd 3f5c 07bf cfc4 1dbf cbb8 3fbe
00000160: 094d 993d babb ecbd 24ee 3dbe c1d6 dabe
00000170: 4ebb 13bf 6066 4ebe 40cc c13d a071 923e
00000180: 912f 903e 68c5 3f3d 5735 193e de43 c83d
00000190: 1d5b 953d 3959 853d bb34 30bd b213 bbbd
000001a0: 1d76 f93d 97ec d8bd cd94 073f 972d 453f
000001b0: 0ed1 b53e 522b a03e 86b0 9ebe ce87 b2be
000001c0: 3b1b 99bc 10d9 7f3e 2791 2e3d 15b9 12bd
000001d0: bada f7be 8132 f8be ac33 fabd 38f6 103e
000001e0: 45e5 593e 0553 cf3d 5aec 333d cd38 48bc
000001f0: 3932 09bd 51cd ec3d 2894 063e c29e c1be
00000200: ed9d 9fbe da4b 5bbd 57b2 a33d 9289 f53e
00000210: 6419 1f3f 3f44 5e3e 66d6 463d bacd c9bc
00000220: 750f a6be 2326 babc 071d c53d 719c 83bd
00000230: e782 a1bd 8326 68be f193 dcbe 0877 6abd
00000240: b5c5 2f3d 4086 9e3e 78de 093e 233e 64bb
00000250: 1117 a1bc 3751 abbd 15bd 1c3d 1379 4a3d
00000260: ec99 05be 3fc9 1fbe 85f6 48bd 0af4 27be
00000270: 001e c4bd 8027 ee3b 0352 78bd 2154 babd
00000280: 7940 6ebe eb4b 1fbe 1d98 9fbe 784b 8dbe
00000290: bb3e 09be 4835 81be ba21 41be b9f7 82be
000002a0: 8d7b 4bbe 941a 45be 4a6c c2bd 8fc2 07be
000002b0: d313 52be 9a6e e2bd 7e0c 07be 54a6 08be
000002c0: c021 59bc 2417 363b b910 1fbb 60d0 f9bd
000002d0: aec6 173e e19c ff3d 2434 4b39 f33f 203e
000002e0: ab76 013e 7caa ee3d 8680 1a3e 0c0f 003e
000002f0: e0f8 093e e7e5 943d 5719 3f3b e560 663d
00000300: cdbb 603d 75b8 66bc a775 983d b293 763c
00000310: 668f 0e3c 77e4 74bd 7e65 203b f717 b7bd
00000320: 77cc 3b3e 107b 4c3c 56df c6bd 0125 18be
00000330: 6d0b 29be 720d 9f3e b76e ca3e ab89 513e
00000340: 5487 c93d dca1 67bc bd93 a13e 35dc 923e
00000350: 7911 b33e 33f3 4e3e e7a5 713d 2f81 b63e
00000360: 35bf d03e 74d1 5d3e 7f6f 443e a372 963d
00000370: 249a 503d 9508 9b3e d024 aa3d 7e19 523c
00000380: ee3e bdbd 03be b9bd 470b 8fbc 4c95 36be
00000390: e870 553e e3e3 e03e ecd5 613d 8172 523e
000003a0: c956 1fbe 3941 c1be 2244 003f c173 143e
000003b0: f1e5 a13e 7f32 b9bc 608c f5be d988 3b3e
000003c0: f5b6 1a3c 0115 b53e c5ed 053e 0f7b babe
000003d0: 5eb5 7fbd 50c5 0cbe f7ec ad3d 9364 b23d
000003e0: 1d45 acbd 2569 703d cad5 7f39 3dd8 06bc
000003f0: 9eba 88be 25e0 19be cf94 e33d 45c0 8e3e
0.57198656 0.5308883 0.7747085 0.6127957 0.5772807 0.26921934 0.21823259 0.32713738
0.33298972 0.27647215 -0.13883786 -0.23908512 0.008998751 -0.1509003 -0.12569407 -0.09562794
-0.103451796 -0.005870234 -0.1675029 0.05013647 -0.28392756 -0.47942117 -0.5375491 -0.62017643
-0.54825467 0.17879097 -0.07566551 0.22560126 -0.15441284 -0.2146733 0.0041359575 -0.2516077
-0.3305435 -0.41949052 -0.43863192 -0.20908853 -0.5280203 -0.42489052 -0.47317258 -0.33596218
0.018282207 0.07223252 0.2113225 0.14093708 0.07853557 0.03914357 -0.052369576 0.15229277
0.004215346 -0.025792034 0.13597865 -0.042161852 0.030662602 -0.028766338 0.09314702 0.013973972
-0.2402733 -0.14116174 -0.29936135 -0.12805913 -0.017228559 -0.22972111 -0.09904187 -0.14646007
-0.098761275 0.26692224 0.17703421 0.37706667 0.39156285 0.37548968 0.24751137 0.19955367
0.48084658 0.26504895 0.24432813 0.059485134 0.051411018 -0.08760841 -0.3330529 -0.29322168
-0.110297896 0.38346893 0.6285725 0.27740803 -0.04618817 -0.5287513 -0.6162843 -0.18722837
0.074853964 -0.115592435 -0.18547875 -0.4274197 -0.5770768 -0.2015624 0.09462786 0.28602314
0.2816129 0.04681912 0.14961754 0.0977857 0.07292769 0.065111585 -0.043019038 -0.09134616
0.121807314 -0.10592001 0.52961427 0.7702269 0.3551106 0.3128305 -0.30994052 -0.34869236
-0.018689742 0.24985147 0.042618897 -0.03582104 -0.48409063 -0.4847603 -0.12216887 0.14156425
0.21278866 0.101232566 0.043926574 -0.012220574 -0.03349516 0.115625985 0.13142455 -0.37816435
-0.31175175 -0.053539135 0.07993 0.4795652 0.6214812 0.21705721 0.04854431 -0.02463423
-0.32433668 -0.022723263 0.09624677 -0.06426323 -0.07886296 -0.22670941 -0.4308162 -0.057242423
0.042913157 0.309618 0.13463771 -0.0034827075 -0.01966432 -0.083651 0.03826626 0.04943187
-0.13046998 -0.15604113 -0.049063224 -0.16401687 -0.095760345 0.0072678924 -0.060625087 -0.090980776
-0.23266782 -0.15556304 -0.3117074 -0.2759664 -0.13402836 -0.25235963 -0.18860522 -0.25579622
-0.1987135 -0.1924842 -0.09493311 -0.13257812 -0.20515375 -0.11056252 -0.13188359 -0.13344699
-0.0132526755 0.002778479 -0.0024271442 -0.121979475 0.14821884 0.12481094 0.00019379013 0.15649395
0.12642924 0.11653611 0.1508809 0.1250574 0.13473845 0.07270413 0.002915939 0.05624475
0.0548666 -0.014082064 0.074443154 0.015049862 0.008701181 -0.059788194 0.0024474557 -0.08940118
0.18339716 0.012480512 -0.09710567 -0.14857866 -0.16508265 0.31064945 0.39537594 0.20462672
0.09840265 -0.014137711 0.31558028 0.2868363 0.34974268 0.2020996 0.058996107 0.35645434
0.4077088 0.21661931 0.19183157 0.07346084 0.05092825 0.30279985 0.08307803 0.012823461
-0.092405185 -0.09069445 -0.017461432 -0.1783039 0.20843852 0.43923864 0.055135652 0.20551492
-0.1556045 -0.37745073 0.5010396 0.14497282 0.31620744 -0.022607086 -0.4795866 0.18313922
0.009443034 0.35367587 0.13078983 -0.3642201 -0.062428825 -0.13747144 0.08492463 0.08710589
-0.0841162 0.058694024 0.00024398338 -0.008230266 -0.26704878 -0.1502691 0.11112367 0.27881065

conv1.bias f4 [6]
00000000: fb60 e2be ca6f 86be 698c 073f 6d4f c0be
00000010: bbb9 1cbe 9962 44be
-0.44214615 -0.26257163 0.52948624 -0.37560597 -0.15305226 -0.19178237

conv2.weight f4 [16, 6, 5, 5]
00000000: ec9d 2c3e 7cdf 503d 4530 61bc 33a2 673b
00000010: 5f66 e43d 1858 973d 2af4 45bd 9c02 75bb
00000020: a47c 1b3d a28e 413d 7b59 0d3e 8ec4 133d
00000030: 6a8a 8e3d 93f5 9a3d 6020 ee3d 6b89 16bd
00000040: 481d 203d 5e5c 153d b559 80bc fc8b 6b3d
00000050: 6204 4c3d a210 643d cd4f 073c 8db1 d23b
00000060: 5da8 85bd 27fe c63d 3fa0 19bd 2d87 a03d
00000070: 1b0e 543d fcd4 763e fae1 0e3e bb3b a3bd
00000080: 3b83 31be 3576 473c 129b b03d 8b11 f93d
00000090: b689 17bd 420a 08be 1f69 9cbd 4803 893d
000000a0: a1b3 05bb 36c1 60bd 9ae8 0abe fa13 80bd
000000b0: 0269 18bd bec6 32bc f24f 53bd 9641 1dbe
000000c0: bab1 a7bd 601d 3fbe bbb6 2b3e 9acc 063e
000000d0: 3111 4e3d 9c95 183e 4e7d 563e dc25 8cbd
000000e0: f222 44be a79a c0bd 1f9c 973b d1a2 c63b
000000f0: ca72 1f3d 5bd1 0ebd 2c28 b4bc 3b9f a2bd
00000100: 7396 633d 1153 52bd 88ab 3bbd c88d af3c
00000110: a7b1 ffbd e247 b93c afff bebd 2e38 b2bc
00000120: 0433 11bc df11 26be 1947 b0bd f429 b7bc
00000130: 92b6 973c 85ad 03bd f786 8dbd 7aed 81bd
00000140: b785 52bd a3bf e5bc 2cb7 ca3d 79bd abbe
00000150: 41a4 1c3d 4343 bbbd 1fed 26be cc41 393e
00000160: f024 f8be d275 963e 7374 70bc 0406 d9bd
00000170: a88a cd3e 955b c4be a4ec 983e 08d3 e13d
00000180: ebcd acbc 7755 a53e ec14 0cbf 40f7 323e
00000190: c031 343e c02f 90bc 97ac 5bbb 8389 cebd
000001a0: 35d1 0fbe b871 603d 9457 a4bc cac0 43bb
000001b0: 5a9a 89bc 85e8 bf3a 5d4c 2fbd 6c07 00bd
000001c0: 6852 12bd 15ae 1cbe 586d e3bd 51c1 42bd
000001d0: 9eba d2bb edc8 973d 43cf 10be 88b9 f0bb
000001e0: eb79 20bd b4f2 b6bd 2102 fc3d 130b 31bd
000001f0: 5868 41bd 0e27 d8bd 44e1 3bbe d2b7 8bbe
00000200: 81c0 3fbe f285 7fbe 7e5f 0f3e 1d82 07bd
00000210: c1da 94bd 9523 48be 7519 dfbd 7753 863e
00000220: 49a1 ef3d f072 4c3e 925f d9bd e9ce 4a3d
00000230: f262 5f3e f266 353d 478e d93e 0834 17be
00000240: c3cc 183e 4948 d33d 9a4d 08be a218 ed3e
00000250: 95a3 dfbd b87c ef3d 4b19 363e 2987 91bc
00000260: a48f 2dbe f9bf 24be 5ec0 e9bd 046a 5c3d
00000270: 6cf4 063d b491 0fbe 1e2d 2abe 352c aaba
00000280: e11a 1fbc 9db1 aebc 60c2 80be e205 3dbe
00000290: 58e0 70bd 849d 9d3c 80b5 bdbd 186b 52be
000002a0: 4846 04be edfd b73c ee54 78bd 8c3f 1abe
000002b0: 93d2 e4bd fc67 cbbd 91cb 373d a3b0 d93d
000002c0: 81b8 a53d d8db aebd 5b9b 7cbd d42f 243e
000002d0: 60ea 353e 768d 8a3d 9e93 07be 7f95 71be
000002e0: e4be b0bd 3e7c b03c ff8f 51bd d391 a7be
000002f0: 7638 4cbe e121 9cbd a6fb 6aba b8ff 45be
00000300: b5ee 47be 0d86 a7bd 3da4 cb3d 393a ecbd
00000310: 0cb4 67be cde3 cabd 100a a0bd f1ec 3f3e
00000320: 3422 dc3e d854 31bc f88b 80be 439a 95be
00000330: 3eaa f4bd 4fe6 e13e cf90 a53b 87e7 8ebe
00000340: 1781 babe 72d4 dabd 9eb4 ac3e 6a89 f73d
00000350: 4347 8ebe 8907 abbe 9819 79bc c802 9e3e
00000360: dac2 e53d a3f1 38be d6da 67be ab67 cdbb
00000370: 46f0 a83e 5bda 283e a400 3bbd 0ca3 81be
00000380: 6d91 55bd c110 5c3c 07b1 193e 9961 00be
00000390: d1db 14be ff3f 34be 6005 693d 91fb e63d
000003a0: 463c 91bd b08e c2bd d7bf c1bd 176b cfbb
000003b0: a9ea ae3d 2e46 c23c 7777 25be e94d e53c
000003c0: 24a7 6a3c 8d82 7d3d 5a7f d03c 2d59 16bd
000003d0: 5ce4 cdbd 4e11 4f3e 5667 d03d 16af 28bd
000003e0: ccc7 413b 2ba9 ecbd f592 843e 3262 6b3e
000003f0: 89c7 af3d 97dd 97bd 996c c2be b446 b63e
0.16857117 0.05099438 -0.0137444185 0.003534448 0.11152338 0.073898494 -0.048328556 -0.0037385589
0.037960663 0.047255166 0.13803665 0.03607612 0.06959994 0.07566371 0.11627269 -0.036752146
0.039090425 0.03646504 -0.015667776 0.057506546 0.049808867 0.055679925 0.008258772 0.006429857
-0.06526253 0.097164445 -0.03750634 0.07838283 0.051771265 0.24104685 0.1395339 -0.07970377
-0.17335217 0.012174179 0.08623327 0.12161549 -0.036996566 -0.13285163 -0.07637238 0.06690079
-0.0020401257 -0.05487176 -0.13565293 -0.0625381 -0.03720952 -0.010911642 -0.051589914 -0.1535705
-0.081881955 -0.1866355 0.16768925 0.13163987 0.050309364 0.14900821 0.20946237 -0.068431586
-0.19153956 -0.094044976 0.0046267654 0.0060618897 0.03892783 -0.034867626 -0.021991812 -0.07940527
0.0555634 -0.05134875 -0.04581788 0.021429911 -0.12485056 0.022617284 -0.093261115 -0.021755304
-0.008862261 -0.16217755 -0.08607311 -0.022358872 0.018519673 -0.032147903 -0.06910508 -0.06344123
-0.05139705 -0.028045481 0.098982185 -0.33542994 0.038242582 -0.091436885 -0.16301392 0.18091506
-0.4846568 0.29386765 -0.014676201 -0.105968505 0.4014485 -0.38351122 0.29868042 0.11026579
-0.021094283 0.32291767 -0.54719424 0.17477131 0.17597103 -0.017600894 -0.003351962 -0.10084822
-0.1404465 0.05479595 -0.020061292 -0.002986955 -0.016797233 0.001464144 -0.042797435 -0.031257078
-0.03572312 -0.15300782 -0.1110484 -0.047547642 -0.006430938 0.074113704 -0.14141564 -0.007346336
-0.03917877 -0.08933011 0.123050936 -0.04322345 -0.04721865 -0.10554324 -0.18347651 -0.2728868
-0.18725778 -0.2495344 0.14001271 -0.03308307 -0.072682865 -0.19544823 -0.108935274 0.26235554
0.117006846 0.1996572 -0.10613932 0.04951373 0.21815088 0.04428763 0.42491361 -0.14765942
0.1492186 0.10316522 -0.13310853 0.46307856 -0.10919873 0.1169371 0.17783086 -0.017764645
-0.16949326 -0.16088857 -0.11413644 0.053812042 0.032947943 -0.14020425 -0.16618773 -0.0012983145
-0.009710998 -0.021324927 -0.25148296 -0.18459275 -0.0588077 0.019240148 -0.09263134 -0.20548666
-0.12917435 0.022459948 -0.06062787 -0.15063304 -0.11172976 -0.09931943 0.04487187 0.10629394
0.08091832 -0.085380256 -0.061671596 0.1603387 0.17765188 0.06765263 -0.13239905 -0.23592184
-0.086301595 0.021543618 -0.051162716 -0.32728443 -0.19943413 -0.076236494 -0.000896389 -0.1933583
-0.19524653 -0.08179865 0.09943435 -0.115345426 -0.22627276 -0.09906731 -0.07814419 0.1874273
0.42994845 -0.010823451 -0.25106788 -0.29219255 -0.119465336 0.44121024 0.005052663 -0.27911016
-0.36426613 -0.10685052 0.3373155 0.120867565 -0.27788743 -0.33404186 -0.015203856 0.30861497
0.112188056 -0.18060927 -0.22642073 -0.0062684617 0.32995814 0.16489546 -0.045654908 -0.25319707
-0.052140642 0.013431729 0.15008937 -0.1253723 -0.14536978 -0.17602538 0.05688989 0.11278451
-0.07091574 -0.09499872 -0.09460419 -0.006329905 0.085408516 0.023715105 -0.16158853 0.027991252
0.014322076 0.06189208 0.025451351 -0.03670614 -0.10053322 0.20221445 0.1017596 -0.0411826
0.002956855 -0.11555704 0.2589337 0.22986677 0.0858298 -0.07415312 -0.37973478 0.35600817

conv2.bias f4 [16]
00000000: d053 4cbf 0696 ac3e ae08 0bbf 0e81 9d3f
00000010: aa58 be3e 3af1 81bc 620a abbe 281d 793f
00000020: ab3d 0d3f 5593 b8be b1c7 4d3f 953a 6abf
00000030: 754f 64bf bc51 de3e f410 843e ba2c 3bbd
-0.7981539 0.3370821 -0.5431012 1.2305009 0.3717702 -0.015862096 -0.3340636 0.97310114
0.5517222 -0.36049905 0.8038283 -0.9149564 -0.8918374 0.43421733 0.25794184 -0.04569695

fc1.weight f4 [120, 400]
00000000: af37 9dbd e4a8 60bc 5327 823d e748 1cbd
00000010: bd72 06be baef 00bd a779 bfbd 08f3 89bd
00000020: 50c8 b33c a37a 33bd a702 aabd c709 a63c
00000030: 381e e13a 16bf e33c 31dd 73bd d3e7 33bd
00000040: 650d 4abc 121a 1bbc be79 e9b9 47a6 513b
00000050: 1235 85bd 73bc bdbd 722e 473c aea5 e5bb
00000060: 6a7b d63c 379b 7dbc fbd1 83bc 89ff aa3d
00000070: c29b bd3d 05a8 c03d 354e 953c 2d67 a83d
00000080: 7e20 bb3d 4d55 833d c195 293d 942b b9bd
00000090: e08a df3c 5a16 ba3d 932b 923d 3534 8c3b
000000a0: ed38 91bd 592e 4e3b a89f 7c3d e764 a2bc
000000b0: 75ad 203d e957 743d 7b7e 9ebd d691 613d
000000c0: dd28 86bc dac6 4e3d 16fa 053e 55db d9bc
000000d0: 0f7d 753d 70b7 9e3d a9f5 f03b 566f 973c
000000e0: 6ed7 08bd d019 403d 1c94 acbb 4126 1d3d
000000f0: ccd8 763d 133b 743c e188 9a3c 96f7 c53c
00000100: 8ad2 8dbc 8f8b b33d aea5 a63c 6b64 f33c
00000110: 9ad9 773c 01ff 76bd 1a9b 6dbc 9ac2 cc3c
00000120: 9e64 a3ba 9362 08bd afd5 c7bd 3164 0b3d
00000130: 63e0 553c ee27 aabd f969 86bd 21b5 863c
00000140: d79a 643c f6e9 6dbc c5db 1fbe f257 f83a
00000150: 76c1 ad3d 351e 593d fee2 80bd 1724 cbbd
00000160: 3372 c23b b7b4 263e cbc8 e13d 6752 d4bd
00000170: 6ec6 c3bd 2cd4 64bd 3167 093e d22c 223e
00000180: 2c8c 433d ae3f e0bb 1153 bf3c 797a 103e
00000190: ee7f b83d 1dac 94bd 922b aebd 0de5 373d
000001a0: 859a 2a3e f73a 8d3d 0ce5 35bd d78b 25be
000001b0: 9696 e63c 60c0 1a3e 1b38 853d 29fb d53c
000001c0: d41c d9bb 49b0 1fbc 8440 433c e696 e93c
000001d0: 08d0 09bc 6829 933d 8ac5 1cbb 2965 f83d
000001e0: cb27 233e 037e dc3d 9cfc ce3d 2687 fd3d
000001f0: fbe4 453e a2d8 8f3d b6d8 653d 34e2 333a
00000200: 98cb d43d 7925 eabb 5df2 eebc a6c5 2dbd
00000210: 986b 95bd ac1e 573d 579d 8a3d e5e4 4fbd
00000220: 6cde f0bc 1273 3dbd 969f cf3c 4683 203d
00000230: 8adf c6bd 56d8 7fbd 7638 57bc 19fe 8c3c
00000240: 6ef8 f43c 7d62 92bd 4fd3 0ebe 069b 57bd
00000250: f278 893d 8929 a8bc b6a1 3a3d e9c3 7d3d
00000260: 4542 463d 0289 fbbc ceed 5cbd 7a49 ed3c
00000270: 5c85 6e3d e621 82bc 7b31 d7bd 5375 a63b
00000280: 582e 403d 5cc2 b8bc ba3a a3bd 7b16 f8bd
00000290: 07e2 bd3c 9209 9bbc 5371 71bd ba87 87bd
000002a0: 1211 6abd 7199 03bc 6164 543d 0a77 293d
000002b0: ef59 2ebc 63b2 4fbd 5a35 64bd e26b c13d
000002c0: 801d 273d 0994 1dbd eec4 9a38 b109 983d
000002d0: db38 99bd a4ac 983c 791e aa3d e79e bcbc
000002e0: b6c2 a6bd afbe dbbc cb1d 65bc ebd2 af3c
000002f0: e4b1 983c 519e 9cbd 0241 3b3d 671d 363d
00000300: be99 d23d 9323 863d d80c 67bc 667b 10bd
00000310: c253 d13c a4a4 be3a 8a27 613d f710 973c
00000320: 0a2a db3c 6e10 e33c 9e91 753d 671b 0d3d
00000330: d161 20bb dbc4 c23d 4dbf bb3c 81fc 923b
00000340: 87a4 89bd 6967 b8ba bddd debc 669a 2dbc
00000350: d568 bc3c 0472 833d 101b 76bd 2903 703d
00000360: dded cebc 53f3 d2bc 1ef8 213c b9f6 57bd
00000370: 4976 273d 36f7 78bb f950 ecbc 17f8 8bbc
00000380: 51a3 e3bd db73 a73c 3ff5 993c 562f fcbc
00000390: 0fdc 5cbc 48fa 3c3d eda0 c9bc 2201 93bb
000003a0: 286b 00bd cbb3 b1bd b5fd d5bc adda 5e3c
000003b0: 70e0 853d 01b3 8ebd 5941 97bc de86 9abc
000003c0: eb68 c73c eba4 a73d 3cbb e9bb 4fe6 1fbd
000003d0: 3832 0dbb 68dc 24be 6704 e6bc f1a2 0b3d
000003e0: dccc 313c 873c 033d 1436 05bd dfc5 24bb
000003f0: 97ac 82bd 7601 babc 9ad1 26bc 8fd5 c33d
-0.076766364 -0.013712142 0.06355157 -0.038155463 -0.13129707 -0.03147862 -0.09349375 -0.06735808
0.021946102 -0.043818127 -0.08301287 0.020268334 0.0017175144 0.027801078 -0.059537116 -0.043922257
-0.012332295 -0.009466665 -0.00044531928 0.0031989978 -0.06504263 -0.092644595 0.0121570695 -0.007008276
0.026181895 -0.015478901 -0.016091337 0.08349521 0.09258224 0.09407047 0.018225769 0.08222804
0.09137057 0.06412754 0.041402582 -0.09041515 0.0272879 0.090862945 0.071372174 0.0042786845
-0.07090936 0.003146073 0.061675698 -0.019823505 0.03922792 0.05965415 -0.07738968 0.05507072
-0.016376907 0.05048261 0.13083681 -0.026593843 0.05993372 0.07749832 0.0073535037 0.018485706
-0.033408575 0.046899617 -0.0052666795 0.03836656 0.060265347 0.0149066625 0.018864097 0.02416591
-0.017312307 0.08766853 0.020342674 0.029710969 0.015127564 -0.060301784 -0.014502311 0.024995137
-0.0012465899 -0.033297133 -0.09757554 0.034031097 0.013053986 -0.08308397 -0.065631814 0.01644379
0.013952932 -0.014521113 -0.15611179 0.0018947108 0.08484165 0.053007323 -0.06293295 -0.09918993
0.0059340238 0.16279875 0.11024626 -0.103672795 -0.09559332 -0.055866405 0.1341827 0.1583741
0.0477411 -0.0068435287 0.023355039 0.1410922 0.09008776 -0.072593905 -0.08504404 0.044896174
0.16660507 0.06896012 -0.04440789 -0.16166626 0.028147977 0.15112448 0.06504842 0.026120739
-0.006625751 -0.0097466195 0.011917237 0.028514337 -0.008411415 0.07185632 -0.0023921453 0.1212867
0.15933149 0.10766222 0.10106775 0.12379293 0.1932563 0.07023741 0.056114875 0.0006862015
0.10390395 -0.0071455804 -0.029168302 -0.04242482 -0.072959125 0.052519485 0.067682914 -0.0507554
-0.029402934 -0.046252318 0.025344651 0.039187692 -0.097106054 -0.062462173 -0.01313602 0.017211007
0.029903617 -0.071476914 -0.13947795 -0.052638076 0.067125216 -0.020527618 0.045564376 0.061954413
0.048403043 -0.030704979 -0.053937726 0.0289657 0.05823265 -0.015885305 -0.105074845 0.005079904
0.046919197 -0.022553615 -0.079701856 -0.12113663 0.023179067 -0.018925462 -0.058945965 -0.06617685
-0.057145186 -0.008032189 0.05185354 0.04137329 -0.010641559 -0.050707232 -0.055714943 0.09444405
0.040799618 -0.038471255 7.379973e-05 0.074237235 -0.074815474 0.018637009 0.083065934 -0.02302499
-0.08142607 -0.026824323 -0.013984154 0.021462878 0.018639512 -0.07647384 0.045716293 0.044461634
0.1028323 0.06549754 -0.014102183 -0.035273932 0.025552634 0.0014544916 0.054969348 0.018440707
0.026753444 0.027717795 0.059953324 0.03444996 -0.0024472366 0.095102035 0.022918368 0.004485667
-0.06720834 -0.0014068905 -0.027205342 -0.0105958935 0.022999207 0.06418231 -0.060084403 0.058596764
-0.025259906 -0.025750792 0.009885816 -0.052725527 0.04088429 -0.0037989146 -0.028847205 -0.017086072
-0.111151345 0.020440986 0.0187937 -0.03078429 -0.0134802 0.046137124 -0.024612868 -0.004486219
-0.031352192 -0.08676871 -0.026121954 0.013601941 0.06536949 -0.06967736 -0.018463777 -0.018863138
0.024342021 0.081857525 -0.007132916 -0.039038 -0.0021544825 -0.16099703 -0.028078271 0.03409094
0.010852065 0.032040145 -0.032522276 -0.0025142354 -0.06380575 -0.022705775 -0.010181809 0.095622174

fc1.bias f4 [120]
00000000: 3c37 183e 6797 a93d 3d5a 29bd a150 1cbe
00000010: 7558 0d3d 3b26 e33c 72e3 993d 950d 6b3e
00000020: ad67 a9bc 3aea 0d3e ce48 623e d91f c9bd
00000030: f3d4 41bd b15b 11bb d9fe 88bd 834c db3c
00000040: 06d6 b7bd 2414 60bd c9a9 01bd 2e5b ec3c
00000050: 85e0 553e 5367 193e dedd 8a3d 901d 4c3d
00000060: 49ff 383b 706b 39bd 79fb e3bd 260c 5d3c
00000070: 5439 f13c 4685 003b 2781 a6bd 2444 8c3d
00000080: e205 2bbd d791 313e 47ff 9e3e aa5b 893d
00000090: 0868 09be 12b7 95ba f8b7 ac3d 9f00 3a3e
000000a0: 2cd4 6c3e b0d0 5abb 89ca b63d 6276 703e
000000b0: d488 aa3c dee3 ba3c 43ff cebd 541a 67be
000000c0: 6dac ed3d 9ba3 5f3d b7cd 1e3e a768 973d
000000d0: 61ec f63d 1002 513e 16de 72bd 6d24 7abc
000000e0: eea8 0b3e 2b7b 573e dee0 853e 3996 843c
000000f0: e3dd 91ba 8955 1e3d dda0 943d e465 06bd
00000100: a88d da3d 107a 383e 597c bfbd be65 d63b
00000110: 04af c9bd 072f 6f3b dd14 2a3d a2bf 13bd
00000120: f22a 1d3e a006 b5bc 0175 06bd 06ed 033e
00000130: 9cf1 22bd dc58 eabc cd60 1c3d b552 8fbd
00000140: f7ff 69bd bd81 6c3c e7c8 703e 67f8 a53d
00000150: 3e41 813c d134 433d 427b 39bb 5ea5 6bbd
00000160: 900c d2bc af21 203e be00 233e f6f7 33bd
00000170: a6ba 2c3d 3c38 6d3d 83d8 a53d d2f2 303d
00000180: ec95 3a3d 0be0 e13d 524a 79bd 78a4 babc
00000190: c62f afbb dd4e 30be f52b 673e bb2a 423e
000001a0: d75d ad3d 14b0 01bd 6a11 a83d 7507 8a3d
000001b0: 2b5a 3d3e 8f50 4c3c 657a 343e 0d4b 893d
000001c0: 5b58 04be f46d 23bd 8a0e 183d ca54 113d
000001d0: 7f4f 843e 39e1 29bd f9be 833d 4a64 c1bd
0.1486482 0.08280831 -0.041345824 -0.15265132 0.034508187 0.02772819 0.07514085 0.229544
-0.02067932 0.13858882 0.22098085 -0.098205276 -0.047322225 -0.0022179896 -0.06689233 0.026769882
-0.089763686 -0.054706708 -0.03165606 0.028852072 0.20886429 0.14980821 0.06780599 0.04983288
0.0028228334 -0.045268476 -0.11131949 0.013491666 0.029446281 0.0019610687 -0.081301026 0.06848934
-0.041753657 0.1734079 0.31054136 0.06706937 -0.13418591 -0.0011422357 0.08433527 0.181643
0.23127812 -0.0033388548 0.08925349 0.2348266 0.020817198 0.022813734 -0.10107281 -0.22568637
0.11605153 0.054599386 0.15508161 0.07393008 0.120568044 0.20410943 -0.05929383 -0.015267474
0.1363866 0.21043079 0.26148123 0.016184913 -0.001112875 0.03865579 0.07257245 -0.032812014
0.1067155 0.18015313 -0.09349889 0.0065428903 -0.09847835 0.0036496536 0.041523803 -0.036071427
0.15348414 -0.022097886 -0.032826427 0.12883386 -0.039781198 -0.028606825 0.038178254 -0.06998197
-0.057128873 0.014435229 0.23514138 0.081040196 0.01577818 0.04765779 -0.0028302227 -0.057530753
-0.025640756 0.1563785 0.15918252 -0.043937646 0.04217019 0.057914957 0.08097937 0.04320032
0.045553133 0.11029061 -0.060861893 -0.022783503 -0.005346271 -0.17217584 0.22575362 0.18961613
0.08465164 -0.03166206 0.082064465 0.067397036 0.18491428 0.012470379 0.17624815 0.06703768
-0.1292433 -0.03989978 0.03712324 0.03548125 0.258419 -0.041474555 0.064329095 -0.09442957

fc2.weight f4 [84, 120]
00000000: 6486 f2bc 1057 01be d1e8 033d 75ad 2ebd
00000010: f755 753d e8c7 a3bd 4ab8 12be 7831 d83b
00000020: 73f5 213d d0d3 69bd 93a5 923d cf10 c3bb
00000030: 6ccb 153d a703 9abd fa27 9cbd 6d13 42bd
00000040: 5f4f d63a c454 d83d 4abf 8bbd f727 173c
00000050: d53c 7cbd f21b 043e 914c 6e3d 9a76 3c3d
00000060: 4090 02be ef83 683d 6b5b e23c cf68 02be
00000070: 3bb4 b2bd 2226 20bd a5f0 fbbd d50b 173d
00000080: 7025 bebd 4621 e9bc 7ce1 f2bc 8d69 8abd
00000090: f809 f33c 3591 8cbd 98a4 b6bd a3af d1bb
000000a0: b114 24bd 15d6 803d 10ee a8bd 8fbd c4bd
000000b0: e2f7 f9bd ff76 423d 843b a6bd 6a6f 063d
000000c0: 9f26 333d 0d61 aabd d53a eabd ef77 5cbd
000000d0: 278a 5e3b 7f7b cf3a 8a74 60bd 34e6 243e
000000e0: 8fbb 95bd d4b5 67bd 7f29 e2bc 6929 983c
000000f0: 104f 72bb d8f7 c33c 3ce1 bdbd 979e 48bd
00000100: 04a1 563d d4e7 b4bd df73 023d e762 323d
00000110: cb3b 13be 1a31 a33d e094 c1bd 35b1 a3bd
00000120: dccd 953d 9098 29bd dff6 a73d 9487 7fbd
00000130: d8db 783d 924f 4abd 178b 0f3e c800 aabc
00000140: 308c 3d3d cae1 03bd 02b2 f8bb ea6b e8bb
00000150: 20e4 f33c 59ae b7bd ef8e 563d e7c7 10bd
00000160: 7b41 323d c2b4 96bd f5f2 9abc c7ff 213d
00000170: 48dd 40bc f964 eb3b c1a4 1a3d 88fa 1dbd
00000180: 2eba b73c ca1c e23c 3731 71bd f520 673d
00000190: 4c98 16bb 7c88 963b 7381 20bc 66df 963d
000001a0: d672 943c 0e5d c83d 5502 e73d 40b8 623d
000001b0: b2b4 d03d 6da9 f03c d18f 9d3c eb4d 6b3d
000001c0: 7c1c 593c b5d0 103d 76b6 ae3d f328 47bd
000001d0: 2022 a7bc 779f 2e3d 05b4 893c 6c3c a93d
000001e0: c2b3 ed3d cb4c 173e 740e 9bbd 99f7 8ebd
000001f0: a460 d8bd 42dc ae3d f588 17bd 3a18 00bd
00000200: 3574 d93d 16d4 c6bd 85cb 263e c110 da3d
00000210: 9db9 d1bd 37c9 c8bd fb9f 6abd 39cf 3abd
00000220: 9ad9 a33c 5214 8cbe 25fc 04bd 9e4b b7bd
00000230: 407c aabd 1cdc 9cbd 68a8 103d 8dee 5cbd
00000240: 1cfc ebbd cb64 96bd 7212 a43d ea38 30bd
00000250: d974 b93d a33b 6d3d 29be 793d d137 29be
00000260: 98c4 0ebd b8a9 84bd 5da1 c6bd 09a6 663d
00000270: 67e7 10bd d6bd 843d 5944 6f3d 7f2b 12be
00000280: aff1 12bd ae4a 12be 0035 b93d 40d0 0dbe
00000290: 6a9d 99bd 0653 443d 85e2 17bd f556 153e
000002a0: c74a e23d 4343 26bd e2cc 5ebc 6689 10be
000002b0: f32e 073e e325 92bd 9fec 593e 548b 21bd
000002c0: 6043 853d 1a39 4cbe 64b4 9a3d 75f4 033d
000002d0: 8807 b9bd 9449 fe3d 847c 74bc 0c84 acbd
000002e0: 28c7 cbbd 7a05 5c3e 521a 043e 5183 edbd
000002f0: a4fe e4bc a71f 9abd 8dac 5cbe df73 5f3e
00000300: 68fe fcbc 1925 44bd a466 2a3d c64a 23bc
00000310: e81e 6ebc 3368 4d3c 1453 c6bd 2680 d43d
00000320: 24a8 cabd 5506 943d cc84 363d 319f f6bb
00000330: 2c30 b0bc 56b3 89bb 33fb 4abe 96b6 5a3d
00000340: 6af0 31be 3f0c c5bd 58a9 62bc 327a e7bc
00000350: c087 413d 74e0 c5bd 62bd 81bc af11 9cbd
00000360: 83c6 923d 3957 11bd 102d 0ebe 51fa cbbd
00000370: 2cd5 babd 482a 383a 619c 153d 2889 9d3d
00000380: a8d2 04bc 2090 2e3e 826a 0f3e 09dd 33bd
00000390: db89 3fbe d687 313e 1f5d adbd c4d0 5f3d
000003a0: 8e0b 68bd 390f 03bd 3fc2 1dbe b023 c63d
000003b0: 1fb3 91bd c1a7 16bb 1393 9e3d 4438 06bd
000003c0: cf73 ce3d ec11 ca3c f4a8 a9bd 7704 01bd
000003d0: 7196 b13d ef2d 9ebd adb4 ba3c 1742 4fbd
000003e0: db34 a13d a3a3 1d3e ab3b f83d 2fa1 44bd
000003f0: 0268 b4bd 4470 ccbb b7dc 503c 8717 c1bc
-0.029605098 -0.12630868 0.032204453 -0.04264589 0.059896436 -0.079971135 -0.14328113 0.006597694
0.03954072 -0.057086766 0.07160487 -0.0059529315 0.03657095 -0.07520228 -0.076248124 -0.047381807
0.0016350559 0.10563043 -0.06823595 0.009225837 -0.06158145 0.12901285 0.05817849 0.046011545
-0.1275034 0.056766447 0.027631482 -0.12735294 -0.087257825 -0.039098866 -0.12301759 0.03687652
-0.092844844 -0.028458249 -0.029648535 -0.067584135 0.02966784 -0.068636335 -0.089181125 -0.0063991114
-0.040058795 0.06290833 -0.08248532 -0.09606468 -0.12205483 0.047476765 -0.081168205 0.032821096
0.043738004 -0.08319292 -0.114370026 -0.053825315 0.0033956857 0.0015829651 -0.05479864 0.1610344
-0.073111646 -0.05656989 -0.027607678 0.018574433 -0.0036973394 0.023921892 -0.09271476 -0.048979368
0.05239965 -0.0883328 0.031848785 0.043551352 -0.14378278 0.0796835 -0.09452224 -0.07992784
0.07314655 -0.04140526 0.08201384 -0.062385157 0.060756534 -0.04939229 0.14017902 -0.020752326
0.04627627 -0.03219775 -0.0075895796 -0.0070929425 0.029771864 -0.08968801 0.052382406 -0.03534689
0.04351948 -0.073586956 -0.018914679 0.03955057 -0.011771508 0.0071836677 0.037754778 -0.038569003
0.022427645 0.027601618 -0.058884826 0.056427915 -0.002297896 0.004593907 -0.009796488 0.073668286
0.018121164 0.09783374 0.11279742 0.055351496 0.10190715 0.029377664 0.019233616 0.057447355
0.01325142 0.03535529 0.085308954 -0.048623037 -0.020402014 0.042632546 0.016809473 0.08263478
0.11606552 0.14775388 -0.07571116 -0.06980819 -0.10565308 0.085381046 -0.036995847 -0.031273104
0.10617868 -0.09708421 0.16288574 0.10647727 -0.10240481 -0.09804004 -0.057281476 -0.04560778
0.020001221 -0.27359253 -0.032467026 -0.0894997 -0.0832448 -0.0765917 0.035316855 -0.053938437
-0.115226954 -0.073434435 0.08011331 -0.043023027 0.0905549 0.057918202 0.060972366 -0.16525199
-0.034855455 -0.06477684 -0.09698746 0.056310687 -0.035376932 0.06481521 0.05841479 -0.14274405
-0.03587502 -0.142863 0.09043312 -0.13848972 -0.075007275 0.04793074 -0.03708126 0.14583953
0.11049419 -0.04059149 -0.013598653 -0.14114913 0.13201503 -0.071361326 0.2128167 -0.039439514
0.065069914 -0.19943658 0.07553938 0.032215554 -0.090346396 0.12416378 -0.014922265 -0.084236234
-0.099500954 0.21486464 0.12900665 -0.11597312 -0.027953453 -0.075255685 -0.21550198 0.21821545
-0.03088303 -0.04788694 0.041601792 -0.009966558 -0.014533736 0.01253705 -0.09683815 0.10376005
-0.098953515 0.0722777 0.04456024 -0.0075263013 -0.021507345 -0.0042022867 -0.19822387 0.053396784
-0.17376867 -0.096214764 -0.01383432 -0.02825651 0.047248602 -0.09661952 -0.015837375 -0.076205604
0.07166769 -0.035483573 -0.13884377 -0.099598534 -0.091226906 0.00070253434 0.036526088 0.07692176
-0.008106865 0.17047167 0.14005473 -0.043911967 -0.18704931 0.17336974 -0.08465027 0.054642454
-0.056651644 -0.03199694 -0.1540613 0.096747756 -0.07114243 -0.0022988173 0.07742896 -0.032768503
0.100806825 0.024666749 -0.082841784 -0.0314984 0.086712725 -0.07723605 0.022791231 -0.050600138
0.078714095 0.15394454 0.12120756 -0.04800528 -0.088089004 -0.006238969 0.012747935 -0.023570789

fc2.bias f4 [84]
00000000: 5606 0cbe 59df 463e b5dd d9bc 5a55 063e
00000010: 7591 653e 1c8a 45bd aa2d 683e 980a 5f3d
00000020: c479 0c3f fd1f e5bb 0bd9 9ebd 9909 ca3d
00000030: d3d2 c9bd 9962 9f3b c275 47bc f6f4 b7bd
00000040: 335f aa3d 76a0 ba3d 3a76 79bd 9ee3 9f39
00000050: e6c7 9c3e e786 fbbd cb0a 593d 5a31 863e
00000060: 1475 01bd a569 8e3d 5d73 743e dc5c 903d
00000070: b0f5 073e 2444 61bd 7a45 383f f62c 54bd
00000080: 442f b2bd 8df0 023c 5a0f 03be dd96 073e
00000090: 2b6d e53c 91a2 87bd ac73 8cbd e235 cb3d
000000a0: 6ccc 3bbd a199 1d3f 6143 c1bd 23ed 2f3e
000000b0: 750e 12bd dd35 963d 9881 cabd d6b1 863e
000000c0: a3d5 253d 7ee6 403e 8552 893e 3353 303e
000000d0: f47e a83c a1a0 c73e 49f6 ddbb 7da9 383e
000000e0: d789 433b 72ca a6bd 5e21 5e3e c050 b1bd
000000f0: 287b 9dbd 9410 ed3d 85b0 1c3d d71e 203e
00000100: 483a 9d3e f015 07bc ba4b 683e a5ff 093e
00000110: 991a 183d 798b 853d 7cc8 e83d e4b9 0abe
00000120: 2a7b 9d3e c49a 913e 1a95 8b3c e87f 963e
00000130: 46bc 3bbd b35a 7e3e 6905 11bd b87e 513e
00000140: 164d 533d 439f b03d 4a82 713d abcf 9d3d
-0.13674292 0.19421138 -0.026594976 0.13118497 0.22418769 -0.048227414 0.2267367 0.054453462
0.548733 -0.0069923387 -0.077562414 0.09865112 -0.09854665 0.0048640487 -0.012174072 -0.089822695
0.08318939 0.09112637 -0.060903765 0.0003049643 0.3062126 -0.1228159 0.05298881 0.26209527
-0.031605795 0.06953744 0.23872133 0.070489615 0.13277316 -0.054996625 0.7198101 -0.05180069
-0.087004215 0.007991922 -0.12798825 0.13241144 0.028006157 -0.06622804 -0.06858 0.09922387
-0.04584925 0.61562544 -0.0943668 0.17180304 -0.03565832 0.07334492 -0.09887999 0.26307553
0.040486943 0.18837926 0.2682077 0.17219238 0.020568348 0.38989738 -0.0067737442 0.18033405
0.0029836798 -0.08144082 0.21692416 -0.0865798 -0.07689506 0.11575428 0.03825428 0.15636764
0.30708528 -0.008244976 0.22685137 0.13476427 0.03713474 0.06520743 0.11366364 -0.13547474
0.3075803 0.2843839 0.01703887 0.2939446 -0.04583385 0.24839287 -0.03540555 0.20458496
0.051587187 0.08624127 0.058962144 0.07705625

fc3.weight f4 [10, 84]
00000000: 7184 453e ed77 3ebe cc69 013e 4cac 5bbd
00000010: e4a0 d5bc c081 7b3d 9317 8d3e d053 bbbd
00000020: 7b96 b1be 9594 fb3d ba4f 8d3d 13dc 363d
00000030: e6d0 863c 5d6d 9cbd 7ba7 7ebe 7563 ec3d
00000040: e501 c93d cda0 e63c 0c76 c03d 4a0d ebbd
00000050: 189a 0e3d 6961 ef3d ec74 77be 3177 3c3e
00000060: 81ce 74bd 03a8 693d 07a3 8fbe 1a30 65be
00000070: 6fd2 373e d8d1 583c 2400 c5be 5e8d 4a3e
00000080: 7049 babd fa2e 333e 6a3a 263e 9e02 9abd
00000090: 950b 9fbd e712 103e 4360 1e3e 74da a6bd
000000a0: 5759 123e 1768 89bd 2513 0abd b265 2abd
000000b0: 6bf7 733d 3b39 a43d ab14 39bd 578c 623e
000000c0: 514c 1c3d 433a 9b3e 9d60 b6bc 27c7 a13e
000000d0: c439 973e 47aa c6bd f5cd 46bc eb0f 3dbe
000000e0: 6470 973d 901f c73d 3b44 1c3c 84d2 07bd
000000f0: 39d6 ac3c b1c2 1f3e 555b 4e3e 2fe8 3c3e
00000100: af1d f7bd d661 f63d b6c1 b4bc 5893 2738
00000110: 1936 173e 8fdb 693d ebf8 b33d 4952 acbc
00000120: 1876 a03d 7dc7 7fbe 93bf eabd 80ca e8bc
00000130: c3ca 4f3c 50f4 683b ec3f 5fbc a665 0abd
00000140: 312d b8bc f2fa b4bc 61a6 0c3e f418 cf3d
00000150: 6bf6 e13d 2056 8dbe 705b b63d 087d 023e
00000160: bfb9 8f3d 8721 d93d 9ec3 5c3e d0d8 ce3d
00000170: 6e30 babd bb63 2fbe 8e85 7d3d eb02 fcbc
00000180: 85bb c43d f4b8 8e3b ec21 2a3e 4b37 ba3c
00000190: 1e0f 8a3b 937e 9dbd 57ab eb3d 7ed2 9f3c
000001a0: f496 31bd 9343 cf3e 94c1 33be 381f e4be
000001b0: cd8a 03bd fb0b d83d a291 1c3d 7cc1 a73e
000001c0: 15ae 60bd be67 503d a6c6 a9be 1fe3 67bc
000001d0: 590e 90bd 3c3a c03d 5e17 b93b 20bc c8bd
000001e0: defd 113e d9a6 bb3d dc86 de3c a6f9 693d
000001f0: 6615 04be e598 56be 7e73 59bd 298c 563e
00000200: 71ff 8e3e 6b71 1cbe d495 833d 134e 18bd
00000210: e03c 93bd 4efa 88be f70a 0fbe 5480 cfbd
00000220: fd95 0abe 2a20 04bf ae1a 36be 7b69 61bd
00000230: 5055 093d f7f8 753d a60a 2abe 8969 073d
00000240: de2a d23d 20e4 5fbe c78c 1a3e cfe9 0a3e
00000250: 9476 7a3b 08b4 673e 5dde 52be e1e6 aa3e
00000260: 3057 773e d8f7 7ebd 96b3 6fbe 93c5 673e
00000270: fca7 8cbd 7a34 0d3e b7ee 21bd b1a0 d0bd
00000280: 04be b93c e38e a9bb 48b3 073d 9769 68be
00000290: 8b2f 59be a954 b3bd 231b 703d 11a4 093c
000002a0: f7d1 533e e351 2ebd 02c7 dc3d 90d4 b5bd
000002b0: 2358 0ebd 866e ccbd cbd9 abbd ed3f 323c
000002c0: 9b3c 123e 083e 92bd 07b2 94bd 8baf 80bd
000002d0: e67b cebd 8588 133d 7735 5fbd 2718 b5bd
000002e0: 1a29 c1bd 760f ab3d 4653 49bd 395e 09be
000002f0: 9137 183e 6b44 1fbe 359b 68bc 5383 873e
00000300: 38a2 9f3d 1171 2a3d 2b42 2b3e b384 8ebd
00000310: 29a6 603d aa82 0a3e f208 343e c2ae 25bd
00000320: 1f9c f83d fc25 76bd 8fd7 523c 4b6e 3dbd
00000330: ea79 683c 229b f13c 3107 403e 13a5 eebd
00000340: a34b 013e 122f 90bd 29f2 e3bd 865c 87be
00000350: 79bc d73d cd9d 8d3e 71db 0e3e 9475 6bbe
00000360: 7594 1c3e d8ac d33d 6f20 02bd a2fb b43d
00000370: c2ce 933d 6364 803e 64e1 6c3e d409 9f3e
00000380: 67e3 f5bd c764 533e b802 563e eaf2 31bd
00000390: 9c13 99bd ebfb 133e 4ed6 d1bd 74bd d33d
000003a0: 23e8 433e 0b60 043e afc5 723e 634e 8ebe
000003b0: b512 ae3d 9898 a53c 5e9f 1b3d f814 1fbe
000003c0: fd2c b93c 232a ff3d 4a1a 1cbe ca0a 04be
000003d0: 3d3e 24bd fbb3 babd 6309 6dbe 1bb2 863d
000003e0: 8d81 e43d 7bc0 e5bd a22d 1f3e 0b85 bdbd
000003f0: 29ea e6bc b0ec f63d 2c91 88bd e956 e9bd
0.19288804 -0.18600436 0.12638015 -0.053631112 -0.026077695 0.061403036 0.27557048 -0.09146845
-0.3468512 0.12284199 0.06899972 0.044643473 0.016457032 -0.07638047 -0.24868576 0.115424074
0.098148145 0.028152848 0.09397516 -0.11477144 0.034814924 0.116885014 -0.24165696 0.18404843
-0.05976725 0.057044994 -0.28054067 -0.2238163 0.17951368 0.013233624 -0.3847667 0.1978049
-0.09096038 0.17498389 0.1623322 -0.075200304 -0.07765881 0.1406971 0.15466408 -0.081471354
0.14291893 -0.06709307 -0.033709664 -0.04160089 0.059562128 0.08018728 -0.045185726 0.22123848
0.03815872 0.30317888 -0.022262866 0.31597254 0.2953626 -0.097004466 -0.012134065 -0.18463103
0.07394484 0.09722817 0.009537752 -0.033159748 0.021098243 0.15601613 0.20152028 0.18447946
-0.120662086 0.120303795 -0.022065025 3.9953127e-05 0.1476673 0.057094153 0.08787712 -0.02103533
0.078350246 -0.24978442 -0.11462321 -0.028416872 0.0126826195 0.0035546012 -0.01362608 -0.033788346
-0.022482486 -0.022092316 0.13735344 0.10112181 0.110333286 -0.2760477 0.08904159 0.12743008
0.0701785 0.10602098 0.21558997 0.100999475 -0.090912685 -0.17127888 0.061894946 -0.03076311
0.09606079 0.004355544 0.16614503 0.022731444 0.004213228 -0.07690158 0.1150729 0.01950955
-0.04335685 0.40481243 -0.17554313 -0.44555068 -0.032114793 0.1054916 0.038224824 0.32764804
-0.054853518 0.050880186 -0.3315937 -0.014153271 -0.070339866 0.09386107 0.0056485375 -0.09801507
0.14256999 0.09162683 0.027163915 0.05712285 -0.12898788 -0.20956762 -0.053088658 0.20951904
0.2792926 -0.1527764 0.06425062 -0.037183832 -0.07189345 -0.26753467 -0.13969027 -0.101318985
-0.13533778 -0.5161158 -0.17783615 -0.055032235 0.033528626 0.060051885 -0.16605625 0.03305963
0.102620825 -0.21864367 0.15092765 0.13565753 0.003821765 0.2262727 -0.20592637 0.33379272
0.24154353 -0.06224808 -0.2340835 0.22633962 -0.06867978 0.1378955 -0.039534297 -0.101868995
0.022673614 -0.005174504 0.03312996 -0.2269653 -0.21209542 -0.08756382 0.05861963 0.008400933
0.20685564 -0.042558562 0.10780145 -0.08878434 -0.034752022 -0.09982018 -0.0839115 0.010879499
0.14280932 -0.07140738 -0.072605185 -0.06283482 -0.100822255 0.036018867 -0.054494347 -0.08842497
-0.094316676 0.08352558 -0.04915168 -0.1341485 0.14864947 -0.15553443 -0.0141971605 0.2646738
0.07794613 0.041611735 0.1672446 -0.06958904 0.054845963 0.13526407 0.17581537 -0.040449865
0.12139153 -0.06009482 0.012868776 -0.04624776 0.014189223 0.029492918 0.18752743 -0.11652579
0.1262651 -0.07040228 -0.11130173 -0.26437777 0.10533995 0.27659455 0.13950898 -0.22994071
0.15291007 0.10335702 -0.031769212 0.08837058 0.0721717 0.2507659 0.23132855 0.31062186
-0.12006264 0.20643912 0.20899475 -0.04344455 -0.07474443 0.14451568 -0.102459535 0.1033887
0.19131522 0.12927262 0.23708223 -0.2779418 0.08499662 0.020214364 0.03799378 -0.15535343
0.02260446 0.12459209 -0.15244403 -0.1289474 -0.040098418 -0.0911636 -0.23148112 0.0657694
0.11157522 -0.11218353 0.15544751 -0.092538916 -0.028187828 0.12056863 -0.06668314 -0.1139353

fc3.bias f4 [10]
00000000: 99c1 76be befd 3dbf fe69 94bd f0a7 093f
00000010: eac9 3e3f 4106 13bd 0786 aa3d 8b3c 08be
00000020: 5c4b 343e 0029 14be
-0.24097289 -0.74215305 -0.07246779 0.5377188 0.74526846 -0.035894636 0.08326345 -0.13304345
0.17606872 -0.14468765
