deep-learning-Pytorch/Cigar10.2/model/cnn_model.pth (torch, 251391 bytes, 10 tensors)

conv1.weight f4 [6, 3, 5, 5]
0	0x3e03c92b	0.12869708
1	0x3e6d708e	0.23187467
2	0x3e947bb9	0.29000643
3	0x3e972cee	0.29526466
4	0x3dadc5c9	0.0848499
5	0xbbc161f4	-0.0059015695
6	0x3e6ffaa7	0.2343546
7	0x3e9603eb	0.29299864
8	0x3eb71b4f	0.35763022
9	0x3dc33e9f	0.095334284
10	0xbde7a7b4	-0.11311284
11	0x3e417c99	0.18895186
12	0x3eaae1b5	0.33375326
13	0x3e883ca6	0.2660877
14	0x3e85e370	0.26150084
15	0xbe29466b	-0.16530769
16	0xbdd83e63	-0.10558774
17	0x3e37b6e6	0.17940864
18	0x3e717c6e	0.23582622
19	0x3deca0f5	0.115541376
20	0xbe707a49	-0.23484148
21	0xbdf08c52	-0.11745514
22	0xbd96035c	-0.073248595
23	0x3d82b482	0.063820854
24	0xbd6c4baf	-0.057689365
25	0xbeb29241	-0.34877208
26	0xbe3572e2	-0.17719606
27	0xbe0e99f2	-0.13925913
28	0xbe15af97	-0.14617763
29	0xbe0968c5	-0.13418873
30	0xbeb21e7c	-0.34788883
31	0xbe9da558	-0.3079021
32	0xbe0bcc30	-0.1365211
33	0xbd8e5623	-0.06950023
34	0xbd80b0f9	-0.06283755
35	0xbf04b6c9	-0.5184141
36	0xbe94d37a	-0.29067594
37	0xbe0bfcba	-0.13670626
38	0xbdd81028	-0.105499566
39	0xbd94ce5f	-0.07265925
40	0xbe7987c8	-0.24368203
41	0xbe7bcbb7	-0.2458943
42	0xbdd9ab06	-0.10628323
43	0xbe11d0f6	-0.14239869
44	0xbc6e4472	-0.014542686
45	0xbe90c825	-0.28277698
46	0xbe3df4a0	-0.18550348
47	0xbd922c27	-0.07137328
48	0xbc33048e	-0.010926379
49	0xb9d30a67	-0.00040252807
50	0xbddb39f4	-0.10704413
51	0x3dbf0a02	0.09328081
52	0x3ddc2454	0.107491165
53	0x3d2ca195	0.042146284
54	0xbc3c0efc	-0.011478182
55	0xbe2e8c38	-0.17045677
56	0x3c3c5265	0.011494254
57	0x3e54bfa2	0.20776227
58	0x3d923d79	0.07140631
59	0x3d305f9c	0.04305993
60	0xbe2101a4	-0.15723282
61	0xbdc7f13c	-0.09762809
62	0x3e46a0b6	0.19397244
63	0x3e0ec5a2	0.13942578
64	0x3df35436	0.11881296
65	0xbdc14545	-0.0943704
66	0xbb37a46f	-0.0028021594
67	0x3e0868f0	0.1332128
68	0x3e49bdd3	0.19701318
69	0x3d001ff2	0.031280465
70	0x3e27f777	0.16402994
71	0x39c507fa	0.0003758071
72	0x3e14b902	0.145237
73	0x3d72b01a	0.059249975
74	0x3da49b8b	0.0803748
75	0xbe422af1	-0.18961693
76	0xbe3fe7e5	-0.18740804
77	0xbdd16ff0	-0.102264285
78	0xbdb84a6b	-0.08998569
79	0xbe21a26a	-0.15784612
80	0xbe69ee53	-0.2284482
81	0xbe3de1bc	-0.18543142
82	0xbe775e46	-0.24157056
83	0xbe25f2b5	-0.16205867
84	0xbe26abdd	-0.16276498
85	0xbd25305b	-0.04032932
86	0x3cd1556c	0.025553428
87	0xbca31c68	-0.019911006
88	0x3dd43bdd	0.103629805
89	0xbdbce13a	-0.09222646
90	0x3e1a2705	0.15053947
91	0x3e3fd1ab	0.18732326
92	0x3e1632f0	0.14667869
93	0x3e1692ed	0.14704485
94	0x3dda7d67	0.1066845
95	0x3d991856	0.07475345
96	0x3de85a7a	0.11345382
97	0x3ddd2859	0.10798711
98	0x3db1efd7	0.08688324
99	0x3ca3b433	0.019983387
100	0xbdb6b95f	-0.089220755
101	0xbe43af79	-0.19109906
102	0xbe8c1f42	-0.27367598
103	0xbe62bff3	-0.22143535
104	0xbe138c3e	-0.14408967
105	0xbe3bc607	-0.1833726
106	0xbc58c6d2	-0.013230996
107	0xbe53261f	-0.20620011
108	0xbe8c1930	-0.27362967
109	0xbe3a3afd	-0.18186565
110	0xbaae57b6	-0.0013301286
111	0x3e2d554b	0.16927068
112	0x3ddbfbba	0.107413724
113	0x3dbc28ac	0.09187445
114	0xbd1a823e	-0.037721865
115	0xbba8a294	-0.005146334
116	0x3e2976ea	0.16549268
117	0x3dd0dc16	0.10198228
118	0x3d84913b	0.06473013
119	0xbc78f81c	-0.015195873
120	0x3da9391b	0.08262845
121	0x3dd848d4	0.10560766
122	0x3d2e23e4	0.042514697
123	0x3de4db4a	0.111746386
124	0x3d5c15b2	0.053731628
125	0x3dc10310	0.09424412
126	0xbcd49106	-0.025948059
127	0xbd7564b4	-0.05991049
128	0xbd15045d	-0.036381114
129	0xbd49369b	-0.04912434
130	0x3e4fc343	0.2028933
131	0x3dea5481	0.11441899
132	0x3d8b431e	0.06799911
133	0xbd7b54f2	-0.061360307
134	0xbdcf623b	-0.10126158
135	0x3e6ace9c	0.22930378
136	0x3df70f26	0.12063436
137	0x3eab7261	0.33485702
138	0x3ddc0ed3	0.10745015
139	0x3d7aeacc	0.061259076
140	0x3e47a0e1	0.19494964
141	0x3e19eb32	0.15031126
142	0x3e8f74c6	0.2801878
143	0x3dcfd5b2	0.10148181
144	0x3ddb0277	0.106938295
145	0x3cc146e4	0.023593374
146	0xbdb686ea	-0.089124516
147	0x3e17f313	0.14838819
148	0x3c467c73	0.012114632
149	0x3dc88573	0.097910784
150	0xbcf08985	-0.02936245
151	0x3d844650	0.064587235
152	0x3e10952d	0.14119406
153	0x3e6459f1	0.22299935
154	0x3dca249a	0.098702624
155	0xbcb2bf8c	-0.021819852
156	0x3e19806b	0.14990394
157	0x3dc8c92b	0.09803995
158	0x3e13dd0d	0.14439793
159	0x3e08fcbc	0.1337766
160	0x3d6721fc	0.056428894
161	0x3c020ae8	0.007937171
162	0x3b23d5a5	0.0024999168
163	0x3def822c	0.1169475
164	0x3cd931c4	0.026512988
165	0x3d98b222	0.07455851
166	0x3dfa5b2a	0.122244194
167	0xbd6cbf2a	-0.057799496
168	0x3ca59387	0.020211948
169	0xbd4fee50	-0.050764382
170	0xbccfdf8e	-0.025375154
171	0x3dab32ea	0.083593205
172	0x3baefecc	0.0053404327
173	0x3d5e22a4	0.054232255
174	0xbb4a41d1	-0.0030861984
175	0xbe4abf63	-0.1979957
176	0xbd518431	-0.05115146
177	0x3c89bc64	0.016813464
178	0xbb9c4d5d	-0.0047699646
179	0xbdac27a6	-0.08406
180	0xbdd2e2cb	-0.102971636
181	0x3d063432	0.03276462
182	0x3db1580e	0.08659373
183	0xbded3654	-0.11582628
184	0xbe666c1c	-0.22502178
185	0xbdd97faf	-0.10620057
186	0xbdae6880	-0.085160255
187	0xbdaee0fb	-0.08539005
188	0xbdc58596	-0.0964462
189	0xbddd82e7	-0.10815983
190	0xbce27e7b	-0.027648201
191	0x3b81deeb	0.0039633415
192	0x3d3bf9cf	0.045892533
193	0xbd97e8dd	-0.07417462
194	0xbda4b133	-0.080416106
195	0xbda1cee1	-0.07900787
196	0xbe23d691	-0.1599982
197	0xbe1eb2d8	-0.15497911
198	0xbe1549c5	-0.14578922
199	0xbdf43ea2	-0.11926009
200	0x3d881f16	0.06646554
201	0x3e0aaa95	0.13541634
202	0x3e54c252	0.20777252
203	0x3ded6d29	0.11593086
204	0x3dd2a941	0.10286189
205	0x3d00c660	0.031439185
206	0x3da9b329	0.08286125
207	0x3e05579e	0.13021705
208	0x3e6d131c	0.23151821
209	0x3d1f89fe	0.03894996
210	0x3ce00e85	0.027350673
211	0x3dca8e34	0.09890404
212	0x3e6f97bc	0.23397726
213	0x3e1276cf	0.14303134
214	0xbd60a321	-0.05484307
215	0xbad9452e	-0.0016576403
216	0x3ccfd06c	0.025367938
217	0x3d852364	0.06500891
218	0xbced42e0	-0.028962553
219	0x3d96da70	0.073658824
220	0xb9a1ffa7	-0.0003089879
221	0x3dc66fc0	0.09689283
222	0x3e1664ef	0.1468694
223	0x3de9a58a	0.11408527
224	0xbc18e8f3	-0.009332883
225	0xbe750f4d	-0.23931618
226	0xbd97b5ad	-0.07407699
227	0xbd8a6390	-0.06757271
228	0x3c578e18	0.013156436
229	0x3d7117c1	0.058860544
230	0xbe9c839d	-0.30569163
231	0xbe94d145	-0.2906591
232	0xbe8cfe6f	-0.27537867
233	0xbe540497	-0.20704876
234	0xbdeef069	-0.11666948
235	0xbe1c8af1	-0.15287377
236	0xbe4136c2	-0.18868545
237	0xbda33393	-0.079688214
238	0xbde99712	-0.114057675
239	0xbe0072ae	-0.12543747
240	0xbe5fea16	-0.2186664
241	0xbe4a053d	-0.19728561
242	0xbd34f5ec	-0.044179842
243	0xbe570412	-0.20997646
244	0xbe0257c1	-0.12728788
245	0xbe7573ba	-0.23969927
246	0xbd6b1172	-0.057389684
247	0xbe2278b2	-0.15866354
248	0x3cc7a91e	0.024372634
249	0x3ca99583	0.020701176
250	0x3cb77a93	0.022397315
251	0xbdcde27f	-0.10052966
252	0x3b9e4d21	0.004830972
253	0xbd33c7a3	-0.04389156
254	0xbd96bfb7	-0.073607855
255	0xbdb44190	-0.088015676

conv1.bias f4 [6]
0	0xbe359d42	-0.1773577
1	0xbe2e36f2	-0.17013147
2	0x3f149105	0.5803378
3	0x3efc7f4f	0.4931588
4	0x3e154cb4	0.14580041
5	0xbeaea160	-0.34107494

conv2.weight f4 [16, 6, 5, 5]
0	0xbc91cff2	-0.017799351
1	0xbe057781	-0.13033868
2	0xbe42fc79	-0.19041623
3	0xbe0d4c3d	-0.13798614
4	0xbca58f46	-0.02020992
5	0xbe17bf3d	-0.14819045
6	0xbe23daab	-0.16001384
7	0xbe3d4ac6	-0.18485555
8	0xbd931fe6	-0.071838185
9	0xbd5b0257	-0.05346903
10	0xbbd173bf	-0.006391972
11	0x3cea9ea2	0.028640095
12	0xbd1f2770	-0.03885597
13	0x3b46156f	0.0030225178
14	0x3c5511e2	0.013004752
15	0x3d554649	0.052068982
16	0x3e03de4a	0.12877765
17	0x3e22d048	0.15899765
18	0x3dd5957f	0.10428905
19	0x3d5c0c27	0.053722527
20	0x3dcd44fc	0.10022923
21	0x3e37b826	0.17941341
22	0x3e45971a	0.19295922
23	0x3dbab43f	0.091164105
24	0x3d8c893a	0.068621114
25	0x3b90b3e2	0.004415975
26	0xbd0ac86e	-0.03388255
27	0x3d006144	0.03134276
28	0xbb8737e5	-0.004126536
29	0xbd4ef6fa	-0.050528504
30	0x3dd88dce	0.10573922
31	0x3dc8f89c	0.098130435
32	0x3cda3ee8	0.026641324
33	0xbc0846f8	-0.0083177015
34	0xbda32684	-0.07966331
35	0x3df0d484	0.11759284
36	0xbafc6cba	-0.0019258477
37	0x3ad3fad6	0.0016172777
38	0x3d0f8c83	0.03504611
39	0xbd929a28	-0.07158309
40	0x3d820794	0.06349102
41	0x3d8016cc	0.06254348
42	0xbd6d821a	-0.057985403
43	0xbdd411ca	-0.103549555
44	0xbddd4281	-0.108037
45	0x3d839c6d	0.0642632
46	0x3c94ecf0	0.018179387
47	0xbdafd0f1	-0.08584774
48	0xbbd50153	-0.006500402
49	0x3c61aed9	0.013774597
50	0xb9678646	-0.00022079897
51	0xbd2a0b01	-0.0415144
52	0x3cfe3f2b	0.03103598
53	0x3d9f4e13	0.07778563
54	0x3e1e7169	0.1547295
55	0xbdfc7962	-0.123278394
56	0xbde0f9a3	-0.109851144
57	0xbcdeb915	-0.027187863
58	0xbc999b56	-0.018750828
59	0x3d13b72a	0.03606335
60	0xbc9a5d60	-0.018843353
61	0xbdb9234a	-0.09039934
62	0xbd1e204f	-0.03860503
63	0xbcb48914	-0.02203802
64	0xbd76fcfd	-0.060299862
65	0x3db18ecb	0.08669814
66	0xbc8c657f	-0.01713824
67	0xbd96476f	-0.073378436
68	0xbcba109e	-0.022713002
69	0xbc1d3615	-0.009595414
70	0x3cb2995b	0.021801641
71	0x396bbd4a	0.00022481862
72	0xbd9589e7	-0.073016934
73	0xbdc0da9d	-0.09416697
74	0xbe23cb12	-0.15995434
75	0x3eb1e9b0	0.34748602
76	0x3e8f5583	0.27994928
77	0x3dbb1ae0	0.091359854
78	0x3e429455	0.19001897
79	0x3c3d372f	0.011548801
80	0x3e80cb34	0.25155032
81	0x3c9b5331	0.018960567
82	0x3d5afe96	0.05346545
83	0x3d9b9d97	0.07598417
84	0x3bb6fbab	0.0055842004
85	0x3db69844	0.08915761
86	0xbab2ec55	-0.0013650755
87	0xbd9a8651	-0.0754515
88	0xbd5795ea	-0.052633204
89	0xbdc5e58f	-0.096629255
90	0x3e6243bb	0.2209615
91	0x3c495a7a	0.012289638
92	0xbd3ff741	-0.04686666
93	0xbe09ffd3	-0.13476495
94	0xbd96b326	-0.073583886
95	0x3e6f8d77	0.23393808
96	0x3e438134	0.19092256
97	0xbd3b4786	-0.045722507
98	0xbd05c3a8	-0.032657295
99	0x3d746630	0.059667766
100	0x3d6aa662	0.05728758
101	0x3b0ab0e6	0.0021162569
102	0xbd328728	-0.043585926
103	0xbd257443	-0.04039408
104	0xbcbb5274	-0.022866465
105	0x3d37214a	0.04470948
106	0x3dbed0a0	0.09317136
107	0x3dd8a52e	0.105783805
108	0x3dc83e64	0.09777525
109	0x3da88a3c	0.08229491
110	0x3de17c78	0.11010069
111	0x3d83ee91	0.06441987
112	0xbc400c93	-0.011721748
113	0x3ccab400	0.024744034
114	0x3c440c4f	0.011965825
115	0xbccd1a2d	-0.025036896
116	0x3c7d8c9a	0.015475417
117	0xbd5855e8	-0.0528163
118	0xbd6c20d1	-0.057648484
119	0xbd1c3aa6	-0.03814187
120	0xbdc42dcb	-0.09579047
121	0xbce164f5	-0.02751396
122	0xbd9945fa	-0.0748405
123	0xbddc5da3	-0.10760047
124	0xbdba2c59	-0.0909049
125	0xbd1cff15	-0.038329203
126	0x3d67fa70	0.05663532
127	0xbd165855	-0.036705334
128	0x3d0e23a0	0.034701943
129	0x3dddcb5f	0.108298056
130	0xbdb4a991	-0.08821405
131	0xbe103fe3	-0.14086871
132	0xbcae8cc9	-0.021307366
133	0xbd537c2b	-0.051632088
134	0x3e26008c	0.16211146
135	0xbdc0bfc0	-0.094115734
136	0x3d48e782	0.049048908
137	0x3d5ca598	0.05386886
138	0x3db2980e	0.087204084
139	0x3e06ecc1	0.13176252
140	0xbbf9f83b	-0.0076284683
141	0xbceed116	-0.029152434
142	0xbc94fdc9	-0.01818742
143	0x3d61f527	0.055165436
144	0x3b3fdd1d	0.002927608
145	0xbd23831e	-0.039919965
146	0xbdb5a4ff	-0.08869361
147	0x3d9c0f03	0.07620051
148	0xbc578834	-0.013155032
149	0x3d03c967	0.032174494
150	0x3dc3a715	0.09553353
151	0x3b9f6de3	0.0048653944
152	0x3e2b07c0	0.16702175
153	0x3cd92a25	0.026509354
154	0xbd7382d2	-0.05945093
155	0x3d7f5403	0.06233598
156	0xbd36bb8c	-0.044612452
157	0x3e226652	0.15859345
158	0x3d17941a	0.037006475
159	0xbe028d95	-0.12749322
160	0x3d8cff3c	0.068846196
161	0xbd81f081	-0.063447006
162	0x3e3d7f8e	0.1850569
163	0x3d59c74a	0.053168572
164	0xbd38ba4f	-0.045099553
165	0x3da9289f	0.08259701
166	0x3d68f34a	0.056872644
167	0x3e05f497	0.13081585
168	0xbc74af00	-0.014934301
169	0x3cff5c3b	0.031171909
170	0x3cde740f	0.02715495
171	0x3d9f7a80	0.07787037
172	0x3d39821b	0.045290094
173	0x3e02fb81	0.12791254
174	0x3d27a42c	0.04092805
175	0x3c4e7964	0.012602184
176	0xbda25545	-0.0792642
177	0xbdc5bdf0	-0.09655368
178	0x3e3e9c66	0.18614349
179	0x3e134eea	0.14385572
180	0xbc8abdae	-0.01693615
181	0xbdc03175	-0.09384433
182	0xbd4d37a4	-0.05010189
183	0x3dbefae1	0.09325195
184	0x3dd20205	0.102542914
185	0xbcceeac8	-0.025258437
186	0xbdf06b4d	-0.11739216
187	0xbd446543	-0.047948133
188	0xbd591371	-0.052997056
189	0x3db2b379	0.08725638
190	0xbc54c64b	-0.01298673
191	0xbde846b8	-0.113416135
192	0xbd3862f4	-0.045016244
193	0xbde26337	-0.1105408
194	0xbc6b4a26	-0.01436094
195	0xbd0acf89	-0.033889327
196	0xbe0497b9	-0.12948503
197	0xbd5d6008	-0.05404666
198	0xbc30a9f8	-0.010782711
199	0x3de927d5	0.113845505
200	0xbe0e92a8	-0.13923132
201	0xbe452f17	-0.19256245
202	0xbd89108f	-0.066926114
203	0x3db6bff7	0.08923333
204	0x3e3eb895	0.186251
205	0xbdc38f38	-0.09548801
206	0xbe2dd2fa	-0.16975012
207	0x3d2d3a55	0.042291958
208	0x3e7e8524	0.24855477
209	0x3e1e1dbd	0.15441032
210	0xbd67fd0c	-0.05663781
211	0xbde0470a	-0.109510496
212	0x3d092648	0.033483773
213	0x3e238bae	0.15971252
214	0x3dee94c6	0.1164947
215	0xbd81d91a	-0.06340237
216	0xbe2c7948	-0.1684314
217	0xbcde2d71	-0.027121278
218	0x3e2ea668	0.17055666
219	0x3cbebcb4	0.02328334
220	0xbcba198d	-0.022717262
221	0xbdb0d8ce	-0.08635102
222	0x3d3835a0	0.044973016
223	0xbd2f14be	-0.04274439
224	0x3d994e09	0.07485587
225	0x3e03ced3	0.12871866
226	0x3cc14e47	0.023596896
227	0xbdcf75be	-0.101298794
228	0xbe05547e	-0.13020512
229	0xbd2aa1f2	-0.04165835
230	0x3e18c9d3	0.1492074
231	0x3c0418b7	0.008062533
232	0xbdda2760	-0.106520414
233	0xbdea97df	-0.11454748
234	0xbd2ee38a	-0.042697467
235	0x3e65ac61	0.22429039
236	0x3cd47301	0.025933744
237	0xbd455285	-0.0481744
238	0xbe0a3727	-0.13497601
239	0xbdd36319	-0.10321636
240	0x3e312dc4	0.17302614
241	0x3d713541	0.058888678
242	0x3cfec842	0.03110135
243	0xbd1082c3	-0.035280954
244	0xbdb025d3	-0.086009644
245	0x3de4faf1	0.11180676
246	0x3ddb03fd	0.1069412
247	0x3d86a607	0.06574636
248	0xbdecd223	-0.11563518
249	0xbd86912b	-0.06570657
250	0xbd0e5fe0	-0.034759402
251	0x3e30a51a	0.17250481
252	0x3e20430c	0.15650576
253	0xbceb87e8	-0.028751329
254	0xbea3f41c	-0.32022178
255	0x3bb21cc5	0.0054355585

conv2.bias f4 [16]
0	0xbeb18c33	-0.34677276
1	0x3d3dfe34	0.046385005
2	0xbe30b4de	-0.17256495
3	0xbbcbf2ad	-0.0062239976
4	0x3f082827	0.5318627
5	0xbd7d9a25	-0.06191458
6	0xbe6e2916	-0.2325786
7	0xbe7be2ef	-0.24598287
8	0xbd675f5e	-0.056487434
9	0xbda3958e	-0.0798751
10	0x3f392e1a	0.7233597
11	0x3deef53c	0.116678685
12	0xbe9d364a	-0.30705482
13	0xbcc35ed4	-0.023848929
14	0x3e719798	0.23592985
15	0xbee04aa7	-0.43806955

fc1.weight f4 [120, 400]
0	0x3c15944b	0.009129594
1	0x3d8f88e1	0.070085295
2	0x3dadc52e	0.08484875
3	0x3dde933f	0.10867929
4	0x3e05caba	0.13065615
5	0x3d23f97a	0.04003284
6	0x3c23a1d0	0.00998731
7	0x3d039821	0.032127503
8	0x3d717aff	0.05895519
9	0x3d28f2f4	0.041247323
10	0xbdcdf8cf	-0.10057222
11	0xbb2c8378	-0.0026323479
12	0xbd5fc9cc	-0.054635808
13	0x3d3b2b13	0.045695376
14	0xbce96f44	-0.028495438
15	0xbd238862	-0.039924987
16	0xbbea28fb	-0.0071459985
17	0x3cd29176	0.025704127
18	0xbd2f4275	-0.042787988
19	0xbc8b0d66	-0.016974162
20	0xbe3aa4d2	-0.18226936
21	0xbcf1e94f	-0.029530196
22	0x3b82cecb	0.003991937
23	0xbce96fa4	-0.028495617
24	0xbd41124a	-0.047136582
25	0x3af5b10e	0.0018744783
26	0x3aea4e0e	0.0017876045
27	0x3d280dcc	0.041028783
28	0xbca04fd7	-0.01956932
29	0xbc2eeace	-0.010676099
30	0x3cbede2f	0.023299305
31	0x3d212d06	0.03934958
32	0x3c67cacc	0.014147472
33	0x3d48b7bc	0.049003348
34	0x3cdfa005	0.027297983
35	0xbc9a7be4	-0.018857904
36	0xbd0b3bc1	-0.033992533
37	0xbd4594ba	-0.04823754
38	0x3c4b8866	0.012422657
39	0x3c8cf3b8	0.017206058
40	0x3c8333a5	0.016015837
41	0x3d04729c	0.032335863
42	0xbd1b0889	-0.037849937
43	0x3b531f11	0.0032214562
44	0x3cd14c2b	0.025549015
45	0xbd8c1622	-0.06840159
46	0xbd1d15a1	-0.038350705
47	0xbd53363e	-0.0515654
48	0xbc5a354d	-0.013318372
49	0x3ca67918	0.020321414
50	0xbd5690b2	-0.052384086
51	0xbd336700	-0.0437994
52	0xbc6ade42	-0.014335217
53	0x3d50385f	0.05083501
54	0x3d62b527	0.05534854
55	0xbce48199	-0.027893828
56	0xbd6738c4	-0.05645062
57	0x3b17e2a3	0.0023175857
58	0xbcfe1cb0	-0.031019539
59	0xbbc83af6	-0.0061105443
60	0x3ce54fdd	0.027992183
61	0xbc41d558	-0.01183065
62	0x3d223960	0.0396055
63	0xbc23dd42	-0.010001482
64	0x3d4d2dc8	0.05009249
65	0x3d7cf679	0.061758492
66	0x3cbb6bbd	0.022878522
67	0x3d6c54d0	0.05769807
68	0xbc9fa4fb	-0.019487849
69	0xbbbcd702	-0.0057629356
70	0x3c95e6cc	0.01829853
71	0xbd0f6901	-0.03501225
72	0xbd2758d3	-0.040856194
73	0xbbd15e9d	-0.0063894526
74	0x3caef52d	0.021357143
75	0xbd214a46	-0.039377473
76	0x3d91e663	0.07124021
77	0x3cdbfc06	0.026853573
78	0x3da085fd	0.07838056
79	0xbb272d5e	-0.0025509219
80	0xbcb5f514	-0.022211589
81	0x3c9cb778	0.019130453
82	0xbbd96094	-0.0066338275
83	0x3d1bdd34	0.038052753
84	0x3d087eb4	0.03332396
85	0x3d46481e	0.04840862
86	0xbc0aa99f	-0.008463292
87	0xbd24f2a0	-0.040270448
88	0xbd45176d	-0.048118044
89	0x3d0da510	0.034581244
90	0x3d1accb7	0.037792888
91	0xbc2cba6d	-0.010542494
92	0xbd4bd790	-0.049766123
93	0xbc7a5412	-0.015278833
94	0x3bc28d0e	0.005937225
95	0x3c93feab	0.018065771
96	0xbd856fb9	-0.0651545
97	0xbc9d4b9d	-0.019201094
98	0xbc88fee4	-0.016723104
99	0x3c63c4c8	0.013901897
100	0xbd2b915c	-0.041886672
101	0x3d111d9f	0.03542864
102	0x3cf5966e	0.029978957
103	0x3c24f465	0.010068034
104	0xbcc64dc4	-0.024207003
105	0x3c886edf	0.01665443
106	0xbd9cf096	-0.076630756
107	0x3cbd91a9	0.023140745
108	0x3c7f5754	0.0155847855
109	0xbc44021c	-0.011963394
110	0xbd43000d	-0.04760747
111	0xbd7e96b5	-0.062155444
112	0xbd37ef80	-0.04490614
113	0xbd08d8fa	-0.03341005
114	0xbd68ce33	-0.056837272
115	0x3d897b52	0.067129746
116	0xbcbec794	-0.023288526
117	0xbc2c8123	-0.0105288355
118	0x3b892db3	0.004186356
119	0xbd06f821	-0.032951478
120	0xbc8c42f2	-0.017121766
121	0xbc9324e9	-0.017961936
122	0x3c801c10	0.015638381
123	0xbd5bb017	-0.05363473
124	0xbd18279a	-0.037147142
125	0x3d228dae	0.039685898
126	0x3cf8300b	0.030296346
127	0x3c5d71fc	0.0135159455
128	0xbd2e3f7b	-0.04254101
129	0xbd7b711a	-0.06138716
130	0x3d77ca79	0.060495827
131	0x3bbba2b4	0.005726183
132	0x3ccb50ca	0.024818797
133	0x3d3b5e97	0.045744505
134	0xb9be00a6	-0.00036240107
135	0x3d6fa116	0.058503233
136	0x3d7de6ee	0.06198781
137	0x3d5eebd7	0.054424133
138	0x3cbe1b7d	0.023206467
139	0x3d3ee600	0.046606064
140	0xbc950918	-0.018192813
141	0x3bdcaede	0.006734713
142	0x3c9776c5	0.01848925
143	0xbd2cfd6f	-0.04223388
144	0xbd2db6dc	-0.042410716
145	0x3c5c46c5	0.013444607
146	0x3b28a1ca	0.00257312
147	0x3ca470a7	0.020073248
148	0x3bb3c456	0.0054860516
149	0xbc7ea225	-0.015541588
150	0x3d8ce65e	0.068798766
151	0x3ddd49fb	0.10805126
152	0x3d9cb743	0.07652142
153	0x3c97ed9e	0.018545922
154	0x3ccc1457	0.024912043
155	0x3ccf1b3b	0.02528154
156	0x3cec51de	0.028847631
157	0xbcd69044	-0.026191838
158	0xbd2af9fc	-0.04174231
159	0x3bb59212	0.0055410946
160	0x3d0f03d1	0.03491575
161	0x3c452b7c	0.012034293
162	0x3d273684	0.040823475
163	0x3d335ab4	0.043787673
164	0xbbe39a8e	-0.0069459146
165	0xbc1d5a79	-0.00960409
166	0xbb918bbe	-0.0044417074
167	0x3d1effcd	0.03881817
168	0xbce57e3c	-0.028014295
169	0x3c9ba4e7	0.01899953
170	0xbc9a09ec	-0.01880356
171	0xbd5b63d2	-0.053561993
172	0x3c244eff	0.0100286
173	0xbd0525b6	-0.032506667
174	0xbd63b3ff	-0.05559158
175	0xbbc6541d	-0.0060525076
176	0x3c7342ec	0.014847498
177	0x3c823cd1	0.01589814
178	0xbb10eef5	-0.0022115086
179	0x3d664b97	0.05622443
180	0xbb0fcb65	-0.00219413
181	0xbc919664	-0.017771907
182	0x3c066d5f	0.008204787
183	0xbb707ca9	-0.0036695397
184	0x3d17beba	0.037047125
185	0xbb9bf524	-0.0047594476
186	0xbcfb0e54	-0.03064648
187	0x3d2f257a	0.04276035
188	0x3c9fdbe5	0.019514034
189	0x3c2d978a	0.010595212
190	0xbcb246fa	-0.02176236
191	0xbd17e870	-0.037086904
192	0x3cc9f9bf	0.024655221
193	0x3d8658c0	0.065598965
194	0xba0b6887	-0.0005318005
195	0x3d536396	0.051608644
196	0x3d913cec	0.07091698
197	0x3d8e2344	0.0694032
198	0x3d9143a3	0.07092979
199	0xbb6cdf9a	-0.003614402
200	0x3cab61c3	0.02092064
201	0xbccdbbe1	-0.025114002
202	0xbc2d2b01	-0.010569335
203	0x3b2d24c1	0.0026419612
204	0xbd192096	-0.037384592
205	0xbd13e589	-0.036107574
206	0xbd335df4	-0.043790773
207	0xbd361980	-0.044457912
208	0xbc9c3af1	-0.019071074
209	0xbd4701fb	-0.048585873
210	0x3d470cf3	0.048596334
211	0x3d129ff8	0.03579709
212	0x3d7167f4	0.058937028
213	0x3d45ce12	0.048292227
214	0x3aba87dd	0.0014231164
215	0x3db9d46d	0.0907372
216	0x3c5610b6	0.013065508
217	0x3d9465c3	0.07245972
218	0x3c3d2fd5	0.011547049
219	0x3bb29852	0.005450287
220	0x3da3042e	0.079597816
221	0x3cc8c336	0.024507146
222	0xbafc6d8e	-0.0019258724
223	0x3d26df5c	0.040740356
224	0x3bc8334f	0.006109632
225	0xbc851802	-0.0162468
226	0x3c761c20	0.015021354
227	0xbcb817b7	-0.022472246
228	0x3bda399c	0.0066596996
229	0xbd2a797a	-0.041619755
230	0x3d093112	0.033494063
231	0xbc83e297	-0.016099257
232	0xbd1d7cf2	-0.038449235
233	0x3d211820	0.039329648
234	0xbcfbb732	-0.030727003
235	0x3a624547	0.0008631539
236	0xbc6f34ef	-0.014600023
237	0xbbf6b10b	-0.0075284294
238	0xbc86e3c7	-0.016466035
239	0x3a3e8b7b	0.0007268709
240	0xbd46378f	-0.04839283
241	0xbd62c944	-0.055367723
242	0xbdba3503	-0.090921424
243	0xbc00a51a	-0.007851863
244	0xbd0e22f1	-0.03470129
245	0xbb4fc565	-0.003170335
246	0x3a9ff3e6	0.0012203425
247	0xbd102fd3	-0.03520186
248	0xbbf916f6	-0.007601614
249	0xbccd202b	-0.025039753
250	0xbb9a1838	-0.004702594
251	0xbcaed1f6	-0.021340352
252	0xbd84a4ad	-0.06476722
253	0x3bac86b5	0.0052650818
254	0xbccf2aa8	-0.025288895
255	0x39f2157b	0.0004617384

fc1.bias f4 [120]
0	0xbe0d8c74	-0.1382311
1	0x3d49c254	0.04925759
2	0xbd59b044	-0.053146616
3	0x3cc8d2f3	0.02451465
4	0x3cd586ea	0.026065309
5	0x3d465130	0.04841727
6	0xbdec0bd7	-0.11525696
7	0xbcfab17a	-0.030602206
8	0x3e0cd821	0.13754322
9	0x3e3e5ed7	0.18590866
10	0xbc24ed54	-0.010066349
11	0x3cf470e8	0.029838994
12	0x3d0fed6b	0.03513853
13	0xbc0f5907	-0.008749253
14	0xbc59766b	-0.013272862
15	0x3de9f399	0.11423416
16	0x3d99214f	0.07477056
17	0x3d9482e4	0.07251528
18	0xbd4c739f	-0.049914952
19	0x3d322a45	0.043497343
20	0x3db3bef8	0.08776659
21	0x3cab30cc	0.020897292
22	0xbdb0a6c0	-0.08625555
23	0xbdafa6b2	-0.085767165
24	0xbcd9a8b9	-0.026569711
25	0xbc29375c	-0.01032814
26	0xbda6a862	-0.08137585
27	0xbc9309d2	-0.017949019
28	0x3c5cfbe1	0.013487787
29	0xbdee71fa	-0.11642833
30	0x3d50575f	0.050864574
31	0x3cc0d630	0.023539633
32	0xbde08178	-0.10962194
33	0x3d88fd6b	0.06688961
34	0xbd920e9b	-0.07131692
35	0xbd58e8c2	-0.05295635
36	0x3c76019a	0.01501503
37	0x3ca68401	0.020326616
38	0x3cc1f9d1	0.023678692
39	0x3e21decf	0.15807651
40	0xbcb7bea9	-0.022429781
41	0x3d506df7	0.05088612
42	0x3b560bef	0.0032660922
43	0xbd94c327	-0.07263785
44	0xbc4c6378	-0.012474887
45	0x3d206d09	0.039166484
46	0xbdd933b2	-0.10605563
47	0xbd8c9b73	-0.06865587
48	0xbdbffd1c	-0.09374449
49	0xbe20619a	-0.15662232
50	0x3e4bbf3e	0.19897172
51	0xbdaf9e4b	-0.08575114
52	0xbc1aadbf	-0.009440838
53	0x3dbe594f	0.09294378
54	0x3cce5503	0.025187021
55	0x3d0a061f	0.033697244
56	0xbd8c8eea	-0.06863196
57	0x3c99718e	0.018730905
58	0x3d366549	0.044530187
59	0xbc2c14e7	-0.01050303
60	0xbd66f140	-0.056382418
61	0x3bc3ea7e	0.0059788814
62	0x3c8d49c8	0.017247096
63	0x3df06027	0.117370896
64	0xbc88d095	-0.016701022
65	0x3ddb8799	0.107192226
66	0xbd5e5234	-0.054277614
67	0xbd970162	-0.073733106
68	0xbd28303d	-0.04106163
69	0x3d25da7e	0.040491574
70	0xbc893bfd	-0.016752237
71	0xbcc23615	-0.023707429
72	0xbd8ec3ab	-0.069709145
73	0x3e3ba38e	0.1832411
74	0x3bfa7eda	0.0076445164
75	0x3e294465	0.16529997
76	0x3e033f75	0.12817176
77	0x3d3658c2	0.04451824
78	0xbd518eca	-0.051161565
79	0xbd20b16f	-0.039231714
80	0xbc36c88d	-0.0111562135
81	0x3e8374a7	0.25674936
82	0xbc73d1da	-0.0148815755
83	0x3da0d6fa	0.078535035
84	0x3c0c016c	0.008545261
85	0xbbf719ad	-0.0075409026
86	0xbd76c929	-0.060250435
87	0xbd7e98be	-0.062157385
88	0xbdefd28a	-0.11710079
89	0x3b3a194d	0.0028396428
90	0x3c28f03e	0.010311184
91	0x3dbad416	0.091224834
92	0x3c8d4ccb	0.017248532
93	0x3e1189d9	0.14212741
94	0x3db29ab9	0.08720917
95	0xbe0204be	-0.12697122
96	0x3d08e072	0.033417173
97	0x3c4ae8f9	0.012384647
98	0xbc35e097	-0.01110091
99	0x3c579669	0.013158419
100	0xbcfffe23	-0.031249112
101	0xbdca39f5	-0.09874336
102	0xbd2d13f4	-0.042255357
103	0x3d8ee512	0.069772854
104	0xbcde4c6b	-0.027136048
105	0xbd81090e	-0.06300555
106	0xbca6f009	-0.02037813
107	0x3d88bc7e	0.06676577
108	0xbd5811ad	-0.052751232
109	0xbdbf2e75	-0.09335033
110	0x3d135eac	0.035978958
111	0xbc192c08	-0.009348877
112	0xbd8b6468	-0.0680626
113	0x3cdb3f0b	0.02676346
114	0x3d80a6bc	0.06281802
115	0xbdc085b3	-0.09400501
116	0x3d9ef003	0.07760622
117	0x3de30998	0.11085814
118	0x3dd47d88	0.10375506
119	0x3df65043	0.120270275

fc2.weight f4 [84, 120]
0	0x3d41cb4d	0.047313023
1	0xbc913a82	-0.017728094
2	0x3d177ac1	0.0369823
3	0xbca1319c	-0.019676976
4	0x3d1985ef	0.037481245
5	0xbd591711	-0.053000513
6	0x3cf01032	0.029304598
7	0xbd3f7f35	-0.046752173
8	0x3d827a77	0.063710146
9	0xbc31dbfb	-0.01085567
10	0x3d7bb1a7	0.06144872
11	0xbd6a57d1	-0.057212655
12	0xbd8b7a3a	-0.06810422
13	0xbd5aa504	-0.053380027
14	0xbc1b13e6	-0.009465193
15	0xbd8858d9	-0.06657571
16	0xbcd9cec1	-0.026587846
17	0x3d32252b	0.043492477
18	0x3d3c2558	0.04593405
19	0x3d12eacc	0.03586845
20	0x3d13e527	0.03610721
21	0x3d140ba3	0.03614391
22	0x3c79b10c	0.015239965
23	0xbd1030bc	-0.035202727
24	0xbd9f6617	-0.07783144
25	0x3dab8efc	0.083768815
26	0xbcc6a037	-0.024246318
27	0x3d77ab0c	0.060465857
28	0x3daa4ef5	0.08315841
29	0xbd8dd58b	-0.06925496
30	0x3b6f6c41	0.003653303
31	0xbd3dc5fc	-0.04633139
32	0xbd6ccca2	-0.05781234
33	0x3caf4f80	0.021400213
34	0x3d2a3e7e	0.041563503
35	0x3da0bbab	0.07848295
36	0xbbe3b49c	-0.0069490205
37	0x3b72dc5e	0.0037057619
38	0xbc81fe9d	-0.01586848
39	0xbd5c2d66	-0.053754233
40	0x3d24e55a	0.04025779
41	0xbdafca1b	-0.085834704
42	0xbd9819cd	-0.07426796
43	0xbd434983	-0.047677528
44	0xbd0d7c51	-0.034542385
45	0xbcbae10f	-0.022812394
46	0x3c47d716	0.012197277
47	0x3d1cacf4	0.03825088
48	0xbd7e9446	-0.062153123
49	0x3d31e7f9	0.043434117
50	0xbcf8de88	-0.030379549
51	0x3d77571b	0.060385805
52	0x3d7266e9	0.059180174
53	0x3d43c16e	0.04779189
54	0x3d8c8040	0.06860399
55	0x3d003ca4	0.03130783
56	0xbda95de3	-0.082698606
57	0xbdaee6c4	-0.08540109
58	0xbd0a4bc6	-0.03376367
59	0x3c9548bc	0.018223159
60	0xbdb98416	-0.090583965
61	0x3d0bed2c	0.03416173
62	0x3d121c03	0.035671245
63	0xbd013f23	-0.031554352
64	0xbbb31b2d	-0.005465886
65	0xbd9d53a9	-0.076819725
66	0x3ccfc162	0.025360767
67	0xbcd2c4c0	-0.025728583
68	0xbd9ec75b	-0.07752868
69	0x3caa39af	0.020779459
70	0x3d6ac6bd	0.057318438
71	0x3d00a738	0.031409472
72	0xbda596d3	-0.08085408
73	0xbcd03cac	-0.025419556
74	0xbd907bc2	-0.07054855
75	0xbba8cbaa	-0.005151232
76	0xbd8e9469	-0.06961901
77	0x3d812ae7	0.06307011
78	0xbd64a86b	-0.05582468
79	0xbd2df6f4	-0.04247184
80	0xbd872c47	-0.06600242
81	0xbda7d34f	-0.08194601
82	0xbdacf122	-0.0844443
83	0xbda791b2	-0.08182086
84	0xbd5b60b8	-0.053559035
85	0xbd625079	-0.055252526
86	0x3a57b370	0.00082283374
87	0xbc9e6963	-0.019337362
88	0xbd50d748	-0.05098656
89	0xbda44dbe	-0.08022641
90	0x3d5a11cc	0.05323963
91	0x3d4065cc	0.04697208
92	0xbcd6603e	-0.026168939
93	0xbd4a351b	-0.04936705
94	0xbd05a82d	-0.032631088
95	0xbd05bde3	-0.032651793
96	0x3b09208d	0.0020923943
97	0x3d903d6f	0.070429675
98	0x3d34142e	0.043964557
99	0xbda50706	-0.0805798
100	0x3ceb9ab0	0.028760284
101	0xbd3f652e	-0.04672735
102	0x3cb095db	0.021555832
103	0x3d644669	0.05573121
104	0xba00b885	-0.0004910308
105	0x3d704a5a	0.058664657
106	0xbc0268bc	-0.007959541
107	0x3b731abb	0.003709479
108	0x3d54f133	0.051987838
109	0x3d3d8f8d	0.04627948
110	0x3dadc13d	0.08484123
111	0x3cc2c55d	0.02377575
112	0xbd32072d	-0.043463875
113	0x3da176f3	0.07884016
114	0x3ca29482	0.019846205
115	0xbc78aecb	-0.015178393
116	0xbd9a43f5	-0.07532493
117	0xbba3928e	-0.004991836
118	0x3cd1780c	0.025569938
119	0xbc7318a6	-0.01483742
120	0xbcfe56d7	-0.031047268
121	0x3e010189	0.12598242
122	0xbd1ea6a1	-0.03873313
123	0x3d625109	0.055253062
124	0xbd99d7f8	-0.07511896
125	0xbd0ebe13	-0.034849238
126	0xbd5158e0	-0.05111015
127	0xbdc5ed51	-0.09664405
128	0x3c8bfe8c	0.01708915
129	0x3d0674e9	0.032826338
130	0x3d8d9748	0.0691362
131	0x3d88668e	0.06660186
132	0x3d39221b	0.04519854
133	0xbe2996f8	-0.16561496
134	0xbdcfb851	-0.101425774
135	0xbc87ff64	-0.016601272
136	0xbd8354a5	-0.06412629
137	0xbe0562c2	-0.13025954
138	0x3b8196e8	0.003954757
139	0x3cf898d6	0.030346315
140	0x3ca4aecf	0.020102886
141	0xbccede3f	-0.02525246
142	0x3c6f2a16	0.014597436
143	0xbdcca8cd	-0.09993134
144	0xbdb712c2	-0.08939125
145	0x3d0c6967	0.034280207
146	0x3d9fb875	0.07798854
147	0xbd68e68d	-0.056860495
148	0x3d5d140d	0.0539742
149	0xbd46f632	-0.048574634
150	0xbde69960	-0.11259723
151	0xbd406eec	-0.046980783
152	0xbc311cde	-0.010810105
153	0x3d19797f	0.037469383
154	0xbdd7e297	-0.105412655
155	0xbbd420f1	-0.0064736535
156	0x3d5cf351	0.053942982
157	0xbe221980	-0.1583004
158	0x3db17618	0.08665103
159	0x3e0aa080	0.13537788
160	0xbcbdf89a	-0.023189832
161	0xbdbb6cdc	-0.09151623
162	0x3d99fed9	0.075193115
163	0xbd25b4d9	-0.040455673
164	0x3d5bd449	0.053669248
165	0xbd81b9bc	-0.06334254
166	0xbd709a72	-0.05874104
167	0xbc4ab174	-0.01237141
168	0x3da32fda	0.07968111
169	0x3c855cb1	0.01627955
170	0x3cb12015	0.021621743
171	0xbd659e26	-0.056059025
172	0xbd8da64c	-0.06916484
173	0x3d22969d	0.039694417
174	0x3e20165b	0.15633528
175	0xbc36d1e2	-0.011158438
176	0xbd98a63b	-0.07453581
177	0x3d14fce1	0.036373977
178	0xbd844ce6	-0.0645998
179	0xbd1850aa	-0.037186302
180	0xbd4543f1	-0.048160497
181	0xbd8c66d0	-0.068555474
182	0xbd5fc549	-0.054631505
183	0x3e100eaf	0.14068101
184	0x3c46fe74	0.012145627
185	0x3d4e3cee	0.050351076
186	0x3d62c9e8	0.055368334
187	0xbd81d6b6	-0.06339781
188	0xbce733ba	-0.028222907
189	0xbd467d2b	-0.048459213
190	0xbdc2dda6	-0.09514932
191	0xbd975340	-0.073889256
192	0xbd6fbc87	-0.058529403
193	0x3e1f536b	0.15559165
194	0x3d699097	0.057022657
195	0x3bf10bf1	0.00735616
196	0x3cf86547	0.03032173
197	0x3d84a568	0.06476861
198	0xbc145292	-0.009052889
199	0xbc0ec71c	-0.008714464
200	0x3d94a177	0.072573595
201	0x3e2ee91e	0.17081115
202	0x3d84b7e3	0.06480386
203	0x3dd09c29	0.10186035
204	0xbaa48c43	-0.0012554008
205	0x3daeaf55	0.08529536
206	0x3d087b73	0.033320855
207	0x3d5044f4	0.05084701
208	0xbd81b03f	-0.063324444
209	0x3d3d5a15	0.046228487
210	0xbd84ec8e	-0.06490432
211	0x3dec9df5	0.115535654
212	0x3d11573d	0.035483588
213	0xbd38f611	-0.045156542
214	0x3d9e0c08	0.077171385
215	0xbd7ce69f	-0.061743375
216	0xbc012a51	-0.007883624
217	0x3db81d23	0.089899324
218	0xbce0a442	-0.027422074
219	0xbdc14ff7	-0.0943908
220	0x3d997ea8	0.07494861
221	0xbdf3b075	-0.11898891
222	0x3d480045	0.048828382
223	0x3e08aef5	0.13347991
224	0x3da01dbf	0.078181736
225	0xbddd42bc	-0.10803744
226	0xbd302deb	-0.04301254
227	0x3d1ca860	0.038246512
228	0xbd31e994	-0.043435648
229	0xbd59bf93	-0.053161215
230	0x3dadfb98	0.08495253
231	0x3e452f8e	0.19256422
232	0x3d81fe42	0.06347324
233	0xbd4e9401	-0.050434116
234	0x3aea1525	0.0017859085
235	0xbdf5c26c	-0.11999974
236	0x3dd66a30	0.104694724
237	0x3d93f804	0.072250396
238	0x3d19a893	0.03751428
239	0x3dab1792	0.08354105
240	0xbb1ba535	-0.0023749594
241	0x3dd3bb95	0.10338513
242	0x3da9acd8	0.082849205
243	0xbd112c6a	-0.035442747
244	0xbd63bfd5	-0.055602867
245	0x3db671e5	0.089084424
246	0xbdec7e5d	-0.115475394
247	0x3df226e3	0.11823823
248	0xbd5d7741	-0.054068808
249	0xbcfc467c	-0.030795328
250	0xbe1b1dbc	-0.15148062
251	0x3d9f1bcc	0.07768974
252	0x3d789700	0.06069088
253	0xbcccace7	-0.02498479
254	0xbd6c8d29	-0.05775181
255	0xbd3a3ad5	-0.045466263

fc2.bias f4 [84]
0	0x3ce29a09	0.02766134
1	0x3e38bc08	0.18040478
2	0xbe06d8fe	-0.13168713
3	0x3e71a793	0.2359908
4	0xbd31e86d	-0.04343455
5	0x3e97f118	0.29676127
6	0xbd2cfc09	-0.042232547
7	0xbd6c35b2	-0.057668395
8	0x3e10707e	0.14105412
9	0xbda7c097	-0.081910305
10	0x3e1ba1f1	0.15198494
11	0x3e0bd4ec	0.13655442
12	0x3cdb8251	0.026795538
13	0x3e3789e3	0.17923693
14	0xbd6e20b0	-0.058136642
15	0xbd31741c	-0.04332362
16	0xbd4a7abd	-0.04943346
17	0xbe0c4452	-0.13697937
18	0x3ddc8c5a	0.107689574
19	0x3e5becc1	0.21477033
20	0xbc67c11f	-0.014145165
21	0xbdd511c3	-0.104037784
22	0x3ebbfe52	0.36717469
23	0x3ca33e07	0.019927038
24	0x3ddafcfb	0.106927834
25	0xbdae4192	-0.085086
26	0x3d453016	0.04814156
27	0xbdc5357a	-0.096293405
28	0xbd8a913c	-0.067659825
29	0xbd91fde2	-0.071285024
30	0xbd87858f	-0.06617271
31	0x3c6e8dc9	0.014560171
32	0x3e73fcbf	0.23826884
33	0x3e8c5a7e	0.2741279
34	0x3d633b0c	0.055476233
35	0xbc87b4c0	-0.01656568
36	0x3e0f3f6f	0.13989042
37	0xbd7f1f59	-0.062285755
38	0x3d52117f	0.051286217
39	0x3cea25e5	0.028582523
40	0xbc8a8684	-0.016909845
41	0xbe7f87d2	-0.24954155
42	0x3dcfd091	0.10147203
43	0xbd180578	-0.03711459
44	0xbdae9d7b	-0.08526131
45	0xba53e9a9	-0.00080838293
46	0x3e7f9cc0	0.24962139
47	0xbdb26c77	-0.08712094
48	0xbc8c50ad	-0.017128313
49	0xbd025f29	-0.031829033
50	0x3e221d87	0.15831576
51	0xbd0f59b8	-0.03499767
52	0xbd9b9c34	-0.07598153
53	0xbc81a0e2	-0.015823785
54	0x3d6f0b53	0.05836041
55	0x3e2ecec4	0.17071062
56	0xbda985fe	-0.0827751
57	0x3b9c06bc	0.004761545
58	0xbd8d10d5	-0.06887976
59	0xbdde091f	-0.108415835
60	0x3df2fed4	0.11865011
61	0xbc9169c3	-0.017750626
62	0xbbba9e64	-0.005695151
63	0x3e613ee6	0.2199665
64	0xbc9ce629	-0.019152718
65	0x3db2d51c	0.08732054
66	0xbd1b1e2b	-0.037870567
67	0x3dafd920	0.08586335
68	0xbd1ce832	-0.038307376
69	0x3ed64250	0.41847467
70	0xbdb22f0f	-0.08700382
71	0x3d5058e7	0.050866034
72	0xbd7bf254	-0.0615104
73	0x3e05f32a	0.13081041
74	0x3d4d2719	0.050086115
75	0x3ec0d8f5	0.37665525
76	0xbd880d1c	-0.066431254
77	0x3eb07070	0.34460783
78	0x3de8cb45	0.113668956
79	0x3dac7b41	0.08421946
80	0xbd812c26	-0.06307249
81	0xbd301d3c	-0.04299663
82	0x3c3dff93	0.011596578
83	0x3caa231c	0.020768695

fc3.weight f4 [10, 84]
0	0xbca7e859	-0.020496534
1	0x3e91c549	0.2847083
2	0x3e9bc752	0.30425507
3	0x3df18829	0.117935486
4	0xbd58ebb0	-0.052959144
5	0xbe51b6ff	-0.20479964
6	0x3d833649	0.064068384
7	0x3e6cf76f	0.23141263
8	0x3e82792c	0.25483072
9	0xbd3f3b78	-0.046687573
10	0xbdd650e3	-0.10464647
11	0xbe3beb1d	-0.18351407
12	0x3e17f02f	0.14837717
13	0xbe067984	-0.13132292
14	0x3e0b5079	0.13604917
15	0xbe8ea137	-0.27857372
16	0xbdc180e0	-0.09448409
17	0x3db6df7a	0.089293435
18	0x3dc968d3	0.09834447
19	0x3df3fbe6	0.1191328
20	0xbdbbe52d	-0.09174571
21	0x3d211ba7	0.039333012
22	0x3d842db3	0.06454029
23	0x3b5af93f	0.0033412722
24	0x3d793bcd	0.060848046
25	0xbd625148	-0.055253297
26	0xbd9576a8	-0.072980225
27	0x3e8e8cbd	0.2784175
28	0x3c9924d4	0.018694319
29	0x3dc812f8	0.09769243
30	0x3d3d147c	0.046162114
31	0x3daf484b	0.08558711
32	0x3e5367ec	0.20645112
33	0xbe401751	-0.18758895
34	0xbe23643e	-0.15956208
35	0xbe3020ae	-0.17199966
36	0x3c54ecfb	0.012995954
37	0xbaff2e6e	-0.0019468793
38	0xbd816fe6	-0.06320171
39	0xbd8d13db	-0.06888553
40	0xbd5fe383	-0.05466033
41	0x3de840d6	0.113404915
42	0xbdccf098	-0.10006827
43	0x3db6164c	0.088909715
44	0xbc0ae4ce	-0.008477403
45	0x3d4f96ea	0.050681032
46	0xbdc88eb9	-0.09792847
47	0xbe271334	-0.16315919
48	0xbc9cf04d	-0.019157553
49	0x3c2d13fd	0.010563848
50	0xbe0a8f47	-0.13531218
51	0x3de5101a	0.11184712
52	0x3d2fd48a	0.042927302
53	0x3dc9a334	0.09845582
54	0x3e18718f	0.14887069
55	0xbdcce837	-0.10005229
56	0x3d497330	0.049182117
57	0x3d52dfd3	0.051482987
58	0xbd0086d5	-0.031378586
59	0x3d67dc91	0.056606833
60	0x3e419bdc	0.18907112
61	0x3d59a2de	0.053133838
62	0x3e04e428	0.1297766
63	0xbc22dc52	-0.009940224
64	0x3d4dd572	0.050252385
65	0x3e2a2ab1	0.16617848
66	0xbe1d17f2	-0.15341166
67	0x3d9ef936	0.07762377
68	0x3ddc793c	0.10765311
69	0xbd8ce81a	-0.06880207
70	0x3dcc4f0b	0.09976014
71	0x3e492876	0.19644341
72	0xbd22adf2	-0.03971667
73	0x3d2c730c	0.042101905
74	0xbd2b7bb2	-0.041866012
75	0xbe73fb4f	-0.23826335
76	0x3e654b56	0.2239202
77	0xbc4e5cd1	-0.012595371
78	0x3e3eec6f	0.1864488
79	0x3e0c6d3e	0.13713548
80	0x3db71c84	0.08940986
81	0xbd8ce2ea	-0.06879218
82	0xbdb57ebb	-0.088620625
83	0x3e1de48c	0.15419215
84	0x3d24f1fb	0.040269833
85	0xbe20a681	-0.15688516
86	0xbe26c726	-0.16286907
87	0xbea4c703	-0.32183084
88	0x3cf02b8c	0.02931764
89	0x3c7b5a01	0.015341283
90	0xbdc1802e	-0.094482765
91	0xbe1bf48f	-0.1523001
92	0x3d58aefa	0.052901246
93	0xbdc0c0b8	-0.09411758
94	0x3c90a053	0.017654574
95	0xbd480592	-0.048833437
96	0xbe024bc9	-0.12724222
97	0x3da7b406	0.081886336
98	0xbbbeb31b	-0.005819691
99	0x3df73ee8	0.12072545
100	0x3c0f4aec	0.00874589
101	0x3e2cc7b6	0.16873059
102	0xbdd888c6	-0.105729625
103	0xbe4c5159	-0.19952907
104	0xbd9d25e7	-0.07673245
105	0x3ce633d6	0.02810089
106	0xbeb548cd	-0.35407105
107	0xbd05e4d4	-0.03268893
108	0x3e319747	0.17342864
109	0x3d011c98	0.03152141
110	0x3c750c12	0.014956491
111	0xbc7e6860	-0.015527815
112	0x3e1d9877	0.15390192
113	0xbd326696	-0.043554865
114	0x3da247a3	0.0792382
115	0xbd8d82e7	-0.06909733
116	0xbe1768d9	-0.1478609
117	0xbeadbeec	-0.33934724
118	0xbc38601e	-0.011253385
119	0x3e1415cc	0.1446144
120	0xbec450c0	-0.38342857
121	0x3dce33ff	0.10068511
122	0x3c15fbef	0.009154304
123	0x3da0cc8a	0.07851513
124	0x3d913936	0.0709099
125	0x3e6319c0	0.22177792
126	0xbd62f28f	-0.055407103
127	0x3d342fe6	0.043990992
128	0x3da9c100	0.08288765
129	0x3e3921d5	0.18079312
130	0xbd9d8d68	-0.07692987
131	0x3e8b4704	0.27202618
132	0xbdc9eab2	-0.09859218
133	0x3dcbdb5e	0.0995395
134	0xbda97fd4	-0.082763344
135	0x3e0d221e	0.13782546
136	0xbe0a8391	-0.13526751
137	0xbd98079a	-0.07423325
138	0xbd20431a	-0.039126493
139	0xbe3224b9	-0.17396821
140	0xbb2bcc93	-0.0026214465
141	0xbd3e5400	-0.046466827
142	0xbd8d6596	-0.069041416
143	0x3e68e610	0.22744012
144	0xbe50b920	-0.2038312
145	0x3d16a439	0.03677771
146	0xbc8af242	-0.01696122
147	0xbdb1ac7f	-0.08675479
148	0x3e7b808a	0.24560753
149	0xbe5ccaf9	-0.21561803
150	0xbc88364e	-0.016627457
151	0xbd3457ee	-0.04402917
152	0x3e977b43	0.2958623
153	0xbe399801	-0.18124391
154	0x3c840846	0.016117226
155	0x3e71fcbb	0.23631565
156	0x3e723b05	0.23655327
157	0xbd416fa5	-0.047225613
158	0xbda3e52a	-0.08002694
159	0xbddfa0b3	-0.10919323
160	0x3e862113	0.2619711
161	0xbe63ccf6	-0.22246155
162	0x3def1e26	0.11675672
163	0xbe0f58df	-0.13998745
164	0x3dc6fc4b	0.0971609
165	0x3e11628d	0.1419775
166	0xbd8ad723	-0.06779315
167	0x3d641186	0.055680774
168	0x3d2efb53	0.04272015
169	0x3dc28246	0.09497504
170	0x3be3e439	0.0069546965
171	0x3dc3d4ef	0.09562098
172	0xbd37289b	-0.04471646
173	0x3e8e330c	0.2777332
174	0xbd4b747d	-0.04967164
175	0x3e88f470	0.2674899
176	0xbd62885e	-0.05530583
177	0xbd29f98e	-0.04149776
178	0xbd6ca6b6	-0.057776175
179	0xbcd594d8	-0.02607195
180	0x3e42a559	0.19008388
181	0x3e65d638	0.22444999
182	0x3e29ddfe	0.1658859
183	0xbde4f707	-0.11179929
184	0xbd10bd7e	-0.035336964
185	0x3e10023d	0.14063354
186	0x3de49d95	0.11162869
187	0x3d63e57d	0.05563878
188	0xbd53b2f7	-0.051684346
189	0x3d16a7f6	0.036781274
190	0x3b9612d3	0.0045798807
191	0x3e2b62ef	0.16736959
192	0xbe448337	-0.1919068
193	0xbe233911	-0.15939738
194	0x3ddeeac8	0.10884625
195	0x3de16e59	0.11007375
196	0x3de1bf55	0.11022822
197	0x3d9440ca	0.0723892
198	0x3d46712b	0.04844777
199	0xbbf0eb5c	-0.007352276
200	0x3bc3a677	0.005970772
201	0xbcdd7900	-0.027035236
202	0xbe0a2ef4	-0.13494474
203	0xbddb086a	-0.10694964
204	0x3e20cdb5	0.15703471
205	0xbdd4e812	-0.103958264
206	0x3c875263	0.016518777
207	0xbdee8f1a	-0.11648388
208	0xbddcfbec	-0.10790238
209	0xbe226424	-0.15858513
210	0x3debd02f	0.11514317
211	0x3d7187eb	0.058967512
212	0xbdc2757a	-0.09495063
213	0xbe2ae2b1	-0.16688038
214	0x3e156a19	0.14591254
215	0x3d51eef7	0.051253285
216	0x3e150426	0.14552364
217	0x3ddca48c	0.10773572
218	0x3d94729f	0.07248425
219	0xbe8b04cc	-0.27152097
220	0x3aaef199	0.0013347148
221	0x3e0b3018	0.13592565
222	0x3e8a075d	0.26958743
223	0x3e5c826f	0.21534131
224	0x3d2aea38	0.041727275
225	0xbe14ad15	-0.1451915
226	0xbdcc6546	-0.09980254
227	0x3e35d609	0.17757429
228	0x3eab73bb	0.33486733
229	0xbdb6ecd5	-0.08931891
230	0xbd08e3d5	-0.033420403
231	0x3dbb48ef	0.0914477
232	0xbd8f5466	-0.069985196
233	0xbd6e794a	-0.05822114
234	0xbdd49059	-0.10379095
235	0x3d2d7eac	0.04235713
236	0xbe064466	-0.1311203
237	0xbd14b6ac	-0.036307022
238	0x3d17075e	0.03687226
239	0xbde1e80e	-0.11030589
240	0x3e54b1e0	0.20770979
241	0x3e5f3043	0.21795754
242	0x3e3603fc	0.17774957
243	0x3e5ecb15	0.21757157
244	0x3c8a70f6	0.016899567
245	0x3e9e58c6	0.30927104
246	0xbdabdae5	-0.0839136
247	0x3e55bcb4	0.20872766
248	0xbd2088f0	-0.039193094
249	0x3d82b5ca	0.0638233
250	0x3e557e75	0.20849021
251	0xbd55a5b6	-0.052159987
252	0xbd6ce4e0	-0.05783546
253	0xbd5b33a0	-0.05351603
254	0x3cf3cd32	0.02976093
255	0x3e14204b	0.14465444

fc3.bias f4 [10]
0	0xbe1d4eef	-0.15362142
1	0xbec5d977	-0.38642475
2	0x3e027971	0.12741639
3	0x3e0d2708	0.1378442
4	0x3f1003dc	0.5625589
5	0xbe027462	-0.12739709
6	0x3e1b6285	0.15174301
7	0xbe04dcfe	-0.12974927
8	0x3e6a2aea	0.22867933
9	0xbe45d32a	-0.19318834
